s1_development_environment/exercise_files/final_exercise/best.pth (torch, 999089 bytes, 8 tensors)

fc1.weight f4 [256, 784]
-0.027222056 -0.0030452572 -0.0039050318 0.027678702 -0.031212319 -0.018369237 0.0072126687 0.018406298
0.030280802 -0.027781194 0.012540903 0.028512673 0.020859707 0.036139004 0.023427568 0.014309172
0.023385525 0.029382024 -0.034902632 0.013963483 0.030110221 0.008401182 0.01025761 0.03378347
0.0021125376 -0.025897324 0.01385995 0.0016350932 0.017886866 -0.032646373 -0.015560143 -0.012936035
-0.029250836 -0.0021951124 -0.018476645 0.0018268824 0.010099851 -0.024642762 -0.0019337051 0.013824024
0.004545945 0.026687147 -0.0050768703 0.0022802858 0.020679923 -0.025507575 -0.0041750185 -0.017630275
0.037769947 -0.032025296 -0.047630157 0.02737895 0.02791546 0.0017015524 0.0009887442 -0.009233015
0.011021819 -0.020742059 -0.0012906976 0.026884925 -0.035213485 -0.023823943 0.017077714 -0.001754608
-0.046133738 -0.04511714 -0.043957103 -0.023127206 0.062509 0.054535337 0.04921341 0.040123936
0.025317969 -0.0074840905 -0.031217 -0.002874312 0.014982765 -0.0145673035 -0.01189497 0.0056470395
0.008902438 -0.014765808 -0.03536576 0.028574903 0.005296413 -0.0025986694 0.024086848 -0.0066204667
-0.009492149 -0.051747996 -0.011212382 -0.021248264 -0.016637117 -0.050028 -0.02147381 0.012550321
0.04024525 -0.013236225 -0.013256465 0.039119165 0.050152555 0.017489707 0.043208424 -0.030904183
-0.08078203 -0.03343331 -0.11115888 -0.02712925 0.015016895 -0.012975203 -0.010675907 0.022511575
0.026209716 -0.0052189827 -0.004837986 0.029238781 -0.0003568136 -0.07781849 -0.04544662 -0.017273072
-0.08347819 -0.038081508 -0.0033555008 -0.030198313 -0.020259302 0.004710902 0.034288555 0.05402255
0.023926865 0.018949596 0.02286409 -0.014524025 -0.007393867 -0.08532652 -0.056846425 -0.06669963
-0.013310128 -0.013956128 0.011671398 -0.023211101 0.010217745 -0.006901674 -0.0036870502 -0.006557228
-0.008986811 -0.08385563 -0.036209468 -0.041677434 -0.020299098 -0.0443626 0.004178061 -0.017416371
-0.0018871984 0.053481694 0.04964516 0.0034069424 0.015659666 -0.014509404 0.005313573 -0.019951647
0.042468894 -0.051015314 -0.10931678 -0.02027997 0.024078067 -0.009393491 -0.009559857 -0.00991003
0.0031844117 0.00061030313 -0.04378733 -0.025685726 0.01513673 -0.040466953 0.00014137737 -0.0071917246
0.040023834 0.049746703 -0.0064322897 0.01050805 0.05298779 0.02849465 0.072623834 0.03961852
0.055201747 0.026099037 0.04587211 0.005838544 0.0027211218 -0.0133804 -0.026512552 -0.089519694
-0.041643705 -0.055310875 -0.024426743 -0.024239656 -0.009496314 -0.012471271 0.0050100707 0.010312189
-0.05758576 -0.04598366 -0.014775508 0.015917052 0.03297428 0.022751052 -0.025685163 0.056754857
0.023402968 0.037661906 0.06419403 0.0495361 0.016043374 0.053274196 0.06919131 0.06551472
0.015857987 -0.024578314 0.020719051 -0.062153123 -0.0682221 -0.013524711 -0.05328441 -0.007243159
0.012590423 0.003138558 -0.0010276781 0.0005754241 -0.048288133 -0.040673442 0.039427076 -0.0053293193
0.026288863 -0.039951473 -0.04207618 -0.021833554 -0.04569428 -0.03698103 -0.03858319 0.019341841
-0.0226869 0.025298579 0.079044394 0.052508485 0.03323248 -0.009498609 0.005286013 -0.06544827
-0.073569804 -0.04739869 -0.020854278 -0.0015907084 0.032660056 0.008920716 0.055609364 0.011721674
00000000: ca00 dfbc f092 47bb 90eb 7fbb 72be e23c
00000010: fab0 ffbc 157b 96bc 4058 ec3b cec8 963c
00000020: 720f f83c 6395 e3bc 5c78 4d3c 6993 e93c
00000030: fae1 aa3c 7e06 143d 2ceb bf3c 0471 6a3c
00000040: 0093 bf3c 92b2 f03c 10f6 0ebd 18c7 643c
00000050: b6a9 f63c 1ca5 093c 890f 283c 8960 0a3d
00000060: 8072 0a3b a026 d4bc d814 633c a050 d63a
00000070: 7a87 923c 34b8 05bd f8ef 7ebc aaf1 53bc
00000080: 739f efbc e0db 0fbb 555c 97bc 0074 ef3a
00000090: d879 253c 9edf c9bc 6074 fdba 297e 623c
000000a0: 27f6 943b 019f da3c e05b a6bb d970 153b
000000b0: f168 a93c 43f5 d0bc 98ce 88bb 5e6d 90bc
000000c0: a9b4 1a3d f52c 03bd d717 43bd d249 e03c
000000d0: f6ae e43c a006 df3a c098 813a 1246 17bc
000000e0: dc94 343c 40eb a9bc a02c a9ba c63d dc3c
000000f0: 043c 10bd 6e2a c3bc 90e6 8b3c e0fa e5ba
00000100: bbf6 3cbd c0cc 38bd 5d0c 34bd 4475 bdbc
00000110: b804 803d 7260 5f3d 0094 493d ff58 243d
00000120: a167 cf3c 1a3d f5bb cbba ffbc f45e 3cbb
00000130: 457a 753c b3ab 6ebc 1fe3 42bc cd0a b93b
00000140: 88db 113c 4aec 71bc b0db 10bd ea15 ea3c
00000150: 888d ad3b 704e 2abb c851 c53c 80f0 d8bb
00000160: f584 1bbc b5f5 53bd 24b4 37bc d710 aebc
00000170: 904a 88bc 29ea 4cbd d8e9 afbc dd9f 4d3c
00000180: 34d8 243d c0dc 58bc a531 59bc 6b3b 203d
00000190: c46c 4d3d 9346 8f3c 51fb 303d c52a fdbc
000001a0: 0d71 a5bd 5ef1 08bd 44a7 e3bd 293e debc
000001b0: 6c09 763c f295 54bc 00ea 2ebc 326a b83c
000001c0: c2b5 d63c 0004 abbb f887 9ebb 2b86 ef3c
000001d0: b612 bbb9 4d5f 9fbd 3c26 3abd 4280 8dbc
000001e0: 9df6 aabd 5bfb 1bbd f6e7 5bbb 7462 f7bc
000001f0: d6f6 a5bc e95d 9a3b 2872 0c3d c046 5d3d
00000200: 4602 c43c 2f3c 9b3c 794d bb3c 2df6 6dbc
00000210: 4048 f2bb acbf aebd ccd7 68bd d199 88bd
00000220: b912 5abc 3ea8 64bc 6439 3f3c 3525 bebc
00000230: 5468 273c 7027 e2bb 70a2 71bb 04de d6bb
00000240: 6b3d 13bc 80bc abbd 6150 14bd f5b5 2abd
00000250: 4b4a a6bc 8fb5 35bd 1ee8 883b c7ac 8ebc
00000260: df5b f7ba 9f0f 5b3d b958 4b3d 0247 5f3b
00000270: b348 803c dab8 6dbc 7b1d ae3b a371 a3bc
00000280: ddf3 2d3d 6ff5 50bd 7ae1 dfbd 2e22 a6bc
00000290: 5e3f c53c 28e7 19bc f2a0 1cbc ae5d 22bc
000002a0: 90b1 503b c0fc 1f3a 585a 33bd df6a d2bc
000002b0: 0c00 783c adc0 25bd b33e 1439 8fa8 ebbb
000002c0: 08f0 233d 33c3 4b3d f5c5 d2bb f529 2c3c
000002d0: ba09 593d 9d6d e93c cebb 943d 0747 223d
000002e0: 3a1b 623d a6cd d53c 65e4 3b3d 4251 bf3b
000002f0: d954 323b 7739 5bbc da30 d9bc 1a56 b7bd
00000300: 9792 2abd a88d 62bd 981a c8bc 3e92 c6bc
00000310: 6e96 1bbc 4d54 4cbc 852b a43b 75f4 283c
00000320: 0cdf 6bbd 5d59 3cbd f914 72bc 7a64 823c
00000330: 0a10 073d 6a60 ba3c b169 d2bc c877 683d
00000340: 95b7 bf3c 5f43 1a3d 2978 833d 5ee6 4a3d
00000350: 656d 833c 0b36 5a3d 2cb4 8d3d 952c 863d
00000360: 9ce8 813c 7658 c9bc 00bb a93c 4694 7ebd
00000370: 07b8 8bbd c096 5dbc c140 5abd 0658 edbb
00000380: 1048 4e3c 44b0 4d3b 28b3 86ba 0fd8 163a
00000390: c7c9 45bd 3299 26bd 497e 213d 92a1 aebb
000003a0: be5b d73c 28a4 23bd 1358 2cbd 48dc b2bc
000003b0: ed29 3bbd 6c79 17bd 6809 1ebd c872 9e3c
000003c0: e1d9 b9bc f73e cf3c 07e2 a13d 2313 573d
000003d0: c81e 083d 0ea0 1bbc 4a36 ad3b be09 86bd
000003e0: c4ab 96bd 2125 42bd 97d6 aabc 517f d0ba
000003f0: 8dc6 053d 3228 123c a5c6 633d 440c 403c

fc1.bias f4 [256]
0.0011981304 -0.017102007 0.05919843 0.06905104 0.0050849575 0.05645178 0.0068292804 0.029858185
-0.029040944 0.0024049447 0.040715117 0.061522827 0.04382599 -0.035609584 0.0060285507 0.021864668
0.008578643 0.037739363 0.057707146 -0.021771116 -0.015106627 -0.0058174296 -0.0015063235 0.014577609
-0.027754707 0.0094309 -0.014309389 0.03605877 -0.0008357632 -0.044033248 0.010463613 0.0380119
0.019505473 0.058145054 -0.019616822 -0.017686814 -0.005018477 -0.025718618 -0.021695437 -0.082544
0.03223339 0.008705499 0.062368143 0.007552684 0.037511542 -0.0348576 0.040915284 -0.024041578
0.047050033 -0.009626185 0.02606081 -0.043075982 0.004295114 0.0046620537 -0.049863577 -0.0133197075
0.046440627 -0.05140436 -0.027216982 0.032499366 -0.002341331 -0.02069369 -0.007556323 -0.013155532
-0.01095756 0.040269434 0.03617749 -0.034285862 0.007922079 0.026909929 -0.0035935086 0.04198087
0.0524145 0.0137433205 -0.033610094 -0.023015808 0.066885754 0.034425527 0.042119313 -0.003199342
-0.025905235 0.0054787253 0.04269202 0.007908362 0.0033606826 0.026518779 -0.0006634484 -0.02098701
0.032624964 0.0030018345 0.014394068 0.0021064435 -0.07171867 -0.016351901 0.063721016 0.012524304
0.049763925 0.060832243 -0.0058988733 -0.023898728 0.017566143 -0.014337295 0.009724171 0.0008180087
0.050736394 -0.05549409 0.016758112 -0.025148276 -0.028420156 0.044794105 0.0053436877 -0.03751769
0.0010298487 -0.03828102 0.024103442 0.025569586 0.011503714 0.08696156 0.023670508 0.03239928
0.016537711 0.001271524 0.022124164 -0.006850976 0.00324326 0.022809278 -0.029576626 0.059206996
-0.035021417 0.045788556 0.021937663 0.0086409245 0.010569276 0.00068795553 -0.012680449 0.03134728
-0.0623139 0.04441697 0.016794687 0.0144369155 0.02665218 -0.033500593 -0.00014042179 -0.0050292597
0.031192498 0.041646693 -0.015352545 -0.01794997 0.02682779 0.004303011 0.051007964 -0.040670786
0.055904504 0.0132029075 0.045831423 -0.010883001 0.0006226957 0.018742405 -0.018322628 0.011148294
0.021104738 0.061986037 0.0643955 0.012733624 0.0038426833 -0.021297596 0.06330562 0.020115819
-0.049318984 -0.03427209 -0.0030456185 0.022125157 -0.02948624 -0.04077698 -0.026881078 0.03811167
0.012643482 -0.031201407 -0.043475963 0.021950537 0.040339798 0.01176479 0.043472733 0.042145044
0.04838997 -0.021580795 -0.009291265 -0.056227416 0.017008306 0.01866796 -0.012720172 0.002561731
-0.021043528 -0.0027020776 0.0027586808 -0.04175439 0.0122819785 0.027144682 -0.028802749 -0.04847198
-0.035759423 0.042020675 0.05424249 -0.017763697 0.05800666 0.0044119116 -0.0050420617 0.016056042
-0.029083747 0.0057575116 0.014168878 -0.045063946 -0.02444008 0.0616903 0.009623487 0.031873457
-0.021310924 0.055015214 -0.053832754 -0.029098906 -0.042026747 0.03639262 -0.0243063 -0.031382345
-0.03508395 -0.021117121 0.060243197 0.04720538 0.0014778172 -0.003744886 0.05540352 -0.02913862
0.07363812 0.040502068 -0.026393998 0.011483287 0.005475517 0.0060925605 0.02463703 0.019337073
-0.0072729317 0.058033086 -0.009999337 -0.0122124655 0.028500943 -0.017122755 0.015136008 0.053489007
0.016135866 0.013231782 -0.008960865 0.029904164 -0.06991372 0.010015868 0.044183355 -0.04202991
00000000: 960a 9d3a 8219 8cbc 0e7a 723d a26a 8d3d
00000010: b79f a63b fb39 673d 28c8 df3b 2799 f43c
00000020: 46e7 edbc 479c 1d3b e5c4 263d 5cff 7b3d
00000030: e282 333d 5bdb 11bd 268b c53b 881d b33c
00000040: 708d 0c3c 9794 1a3d 545e 6c3d 5759 b2bc
00000050: c981 77bc 23a0 bebb d46f c5ba ecd6 6e3c
00000060: d75d e3bc 1084 1a3c ed71 6abc 5cb2 133d
00000070: 1e17 5bba 355c 34bd 936f 2b3c 5eb2 1b3d
00000080: f1c9 9f3c 8229 6e3d 75b3 a0bc f0e3 90bc
00000090: 0972 a4bb daaf d2bc a1ba b1bc d40c a9bd
000000a0: 2907 043d 82a1 0e3c bd75 7f3d 817c f73b
000000b0: b4a5 193d d8c6 0ebd c996 273d d8f2 c4bc
000000c0: 89b7 403d 25b7 1dbc 7b7d d53c 7170 30bd
000000d0: 07be 8c3b 24c4 983b c03d 4cbd e73a 5abc
000000e0: 8738 3e3d 618d 52bd 26f6 debc 0e1e 053d
000000f0: 0471 19bb d085 a9bc 089b f7bb 4d8a 57bc
00000100: 5687 33bc 90f1 243d d92e 143d 556f 0cbd
00000110: 9ccb 013c 3672 dc3c 1281 6bbb 22f4 2b3d
00000120: 96b0 563d aa2b 613c bdaa 09bd a68b bcbc
00000130: 66fb 883d c801 0d3d 4d85 2c3d 0dac 51bb
00000140: 3737 d4bc e186 b33b d4dd 2e3d 1392 013c
00000150: e63e 5c3b e93d d93c 45eb 2dba f3ec abbc
00000160: c1a1 053d 6dba 443b 19d5 6b3c 420c 0a3b
00000170: 3de1 92bd 6cf4 85bc 2a80 823d bd32 4d3c
00000180: 42d5 4b3d 3b2b 793d 564b c1bb 44c7 c3bc
00000190: dfe6 8f3c f9e6 6abc 2152 1f3c a26f 563a
000001a0: f7d0 4f3d c54d 63bd 4f48 893c c203 cebc
000001b0: 63d1 e8bc 067a 373d 1a1a af3b 26ac 19bd
000001c0: fdfb 863a 8fcc 1cbd 9574 c53c 4f77 d13c
000001d0: 137a 3c3c e718 b23d a7e8 c13c 1cb5 043d
000001e0: 187a 873c 44a9 a63a bc3d b53c 277e e0bb
000001f0: e08c 543b 86da ba3c ae4a f2bc 0983 723d
00000200: 9e72 0fbd c88c 3b3d 9db6 b33c aa92 0d3c
00000210: c22a 2d3c ea57 343a a8c1 4fbc 0166 003d
00000220: dc3c 7fbd 92ee 353d 0395 893c d088 6c3c
00000230: ac55 da3c eb37 09bd 303e 13b9 7dcc a4bb
00000240: 6987 ff3c b995 2a3d 3e89 7bbc d10b 93bc
00000250: f4c5 db3c 4600 8d3b baed 503d 6996 26bd
00000260: 1ffc 643d 0251 583c bbb9 3b3d 9d4e 32bc
00000270: 673c 233a ac89 993c 5619 96bc 56a7 363c
00000280: d8e3 ac3c 12e5 7d3d cae1 833d b1a0 503c
00000290: 87d5 7b3b 4c78 aebc 60a6 813d eec9 a43c
000002a0: b402 4abd e460 0cbd 0099 47bb d13f b53c
000002b0: 218d f1bc c305 27bd b535 dcbc fc1a 1c3d
000002c0: 9b26 4f3c 189a ffbc da13 32bd 9dd1 b33c
000002d0: 583b 253d 1bc1 403c 7710 323d 48a0 2c3d
000002e0: 9034 463d 35ca b0bc 643a 18bc b84e 66bd
000002f0: 0155 8b3c 8ded 983c 4568 50bc b7e2 273b
00000300: 7a63 acbc 5715 31bb fcca 343b a706 2bbd
00000310: 5a3a 493c 865e de3c bef3 ebbc 8e8a 46bd
00000320: 7978 12bd df1d 2c3d 602d 5e3d 2c85 91bc
00000330: 6498 6d3d cc91 903b e137 a5bb f687 833c
00000340: 0a41 eebc 82a9 bc3b 9524 683c f994 38bd
00000350: 9036 c8bc f8ae 7c3d d4ab 1d3c be8d 023d
00000360: 3f94 aebc a257 613d bc7f 5cbd d460 eebc
00000370: 3d24 2cbd 6e10 153d 011e c7bc c68a 00bd
00000380: 30b4 0fbd d0fd acbc 92c1 763d 6e5a 413d
00000390: 51b3 c13a c36c 75bb cdee 623d 1db4 eebc
000003a0: 95cf 963d 7fe5 253d 3a38 d8bc 6624 3c3c
000003b0: f76b b33b 1aa4 c73b 99d3 c93c c868 9e3c
000003c0: c651 eebb 1ab4 6d3d 42d4 23bc cb16 48bc
000003d0: cf7a e93c 0545 8cbc 05fd 773c 4a17 5b3d
000003e0: 5d2f 843c 1eca 583c 98d0 12bc 94f9 f43c
000003f0: ed2e 8fbd 9819 243c 9bf9 343d 8e27 2cbd

fc2.weight f4 [132, 256]
0.02685744 -0.0066059646 0.0010156407 -0.014235152 0.020480704 -0.07236406 -0.06692489 -0.023995884
-0.010104642 0.018019537 0.06731233 0.020631181 -0.020242088 -0.005873756 -0.039946485 0.030146169
0.026681744 -0.041267157 -0.028116684 0.006486462 0.03237563 0.03799241 0.032752827 -0.06213003
-0.051924184 -0.04251447 -0.03227719 -0.03534988 -0.0025967762 0.00061926816 0.041739743 -0.026404087
-0.064259425 -0.01016103 0.022602675 0.036662217 -0.031256855 -0.01023142 -0.0055165044 -0.03307722
-0.00835224 0.028477058 -0.03737834 0.012980426 -0.029930243 -0.089674 -0.061043136 -0.05204502
-0.0038765648 0.026976438 0.048570137 0.050848637 -0.00039926154 -0.0546611 0.039555706 -0.06545883
0.06320598 0.040549148 -0.033725128 0.066212595 0.051477335 -0.036329683 -0.06449826 -0.019034607
-0.06310405 0.0056178086 -0.02212803 -0.049249474 0.051141612 -0.036910832 -0.011369269 -0.04365207
0.0043285773 -0.08792003 0.044971842 -0.080536254 -0.036729705 -0.010704898 -0.039702635 0.034485284
-0.01909608 -0.028167628 0.0046133837 0.008234822 0.041032977 -0.024067104 0.043659057 -0.043023083
-0.019988365 0.022127235 -0.047686335 -0.03759822 0.040188685 0.0041773985 0.010476328 -0.058419175
-0.016944258 -0.025411136 -0.072995834 -0.020267202 -0.055551317 -0.069465615 -0.011209594 -0.047897432
0.049155775 0.039398424 0.019007275 -0.015031488 0.03729018 -0.030415164 -0.038725473 -0.037760712
0.021540621 0.037863813 -0.018481577 -0.001681778 -0.047807246 0.040876098 -0.01586954 -0.061111286
-0.052188437 -0.05112786 0.028759079 -0.03755545 -0.0006874162 -0.036026087 -0.015198241 -0.060816325
-0.036179524 -0.0032403914 -0.034715764 0.04380179 0.027719723 -0.019906932 -0.018838389 0.012804722
-0.02543121 -0.041435968 -0.0058851237 -0.011266551 -0.015614018 0.012837729 -0.031121084 -0.006819094
0.030981967 0.026772192 0.020152994 -0.0643115 -0.08100367 -0.026489837 -0.03874251 -0.022523772
-0.0013951237 -0.0065731346 -0.073780335 -0.029308958 -0.002158104 0.0264178 0.020666156 0.028442873
0.015346295 -0.053520985 -0.06921909 -0.055105325 -0.031212125 0.005211617 -0.02699661 -0.056666464
-0.052137688 0.049728114 0.025680149 0.024581717 -0.03813634 -0.03482412 -0.03870762 -0.03186895
0.027991768 0.039715216 0.015903542 -0.02087715 -0.047910094 0.001342104 -0.056130957 -0.03815628
-0.0024502566 -0.08244238 -0.0118 0.015225542 -0.032270867 -0.055670097 -0.00839415 -0.0054517435
0.019371964 0.025402093 0.021957707 -0.06445583 -0.04170184 -0.012389206 -0.044888046 -0.018993825
-0.04633985 0.02333535 0.008243587 0.044743937 -0.03227948 0.039761756 -0.021146286 -0.0057291286
0.012091932 -0.06485814 -0.0062148324 -0.026003119 0.031857226 -0.03222325 -0.06265646 0.04883078
-0.017621957 0.030049203 -0.049092025 -0.07069685 -0.029155023 -0.07058027 0.041425604 -0.06179175
-0.043984607 -0.022884699 0.010565598 0.011143856 -0.0109641235 -0.05087691 -0.06344507 -0.04346239
-0.057414394 -0.028586803 0.05573207 -0.031479362 -0.0058087194 0.022117564 -0.002444831 -0.037750367
-0.01027737 0.012338589 -0.028183024 -0.06904689 0.015488773 0.0077973274 -0.06254144 -0.045991745
-0.022762079 -0.016018352 -0.007830432 -0.055595495 -0.081316106 0.032942653 0.018060908 -0.050691154
00000000: 2204 dc3c d976 d8bb 3f1f 853a 8e3a 69bc
00000010: 26c7 a73c 9c33 94bd eb0f 89bd 0493 c4bc
00000020: f18d 25bc b59d 933c 0cdb 893d b902 a93c
00000030: bcd2 a5bc a378 c0bb ed9e 23bd 19f5 f63c
00000040: ac93 da3c c007 29bd f654 e6bc 638c d43b
00000050: 4f9c 043d ee9d 1b3d d427 063d 0f7c 7ebd
00000060: 74ae 54bd a723 2ebd 1635 04bd 09cb 10bd
00000070: ad2e 2abb 6256 223a 4bf7 2a3d 624d d8bc
00000080: 729a 83bd 737a 26bc 3f29 b93c 1f2b 163d
00000090: 3007 00bd b0a1 27bc cbc3 b4bb fb7b 07bd
000000a0: d5d7 08bc b848 e93c 081a 19bd daab 543c
000000b0: 4530 f5bc 01a7 b7bd 5e08 7abd 292d 55bd
000000c0: f70d 7ebb b1fd dc3c 7bf1 463d a946 503d
000000d0: fa53 d1b9 51e4 5fbd 2a05 223d 470f 86bd
000000e0: 2372 813d dd16 263d 5c23 0abd 789a 873d
000000f0: e6d9 523d 6fce 14bd aa17 84bd 77ee 9bbc
00000100: b23c 81bd 9815 b83b d845 b5bc d1b9 49bd
00000110: de79 513d d02f 17bd 2c46 3abc 83cc 32bd
00000120: bdd6 8d3b 6b0f b4bd 6534 383d 31f0 a4bd
00000130: e371 16bd 9963 2fbc 3b9f 22bd 7140 0d3d
00000140: 626f 9cbc ccbf e6bc de2b 973b 59eb 063c
00000150: 3212 283d 6028 c5bc d7d3 323d f938 30bd
00000160: a4be a3bc 2d44 b53c bf52 43bd 9700 1abd
00000170: e49c 243d 8fe2 883b e8a4 2b3c f248 6fbd
00000180: afce 8abc 042b d0bc d77e 95bd 6707 a6bc
00000190: c789 63bd fd43 8ebd 72a8 37bc 1930 44bd
000001a0: 9157 493d 3e60 213d 25b5 9b3c a146 76bc
000001b0: 96bd 183d 3929 f9bc 9a9e 1ebd faaa 1abd
000001c0: f575 b03c 1617 1b3d ad66 97bc 1b6f dcba
000001d0: 88d1 43bd b26d 273d d600 82bc d44f 7abd
000001e0: 8bc3 55bd 726b 51bd 2998 eb3c bed3 19bd
000001f0: b833 34ba 1790 13bd 0b02 79bc 8a1a 79bd
00000200: fb30 14bd bf5c 54bb 1e32 0ebd 8169 333d
00000210: 7914 e33c dd13 a3bc f752 9abc e6ca 513c
00000220: 1d55 d0bc c3b8 29bd ffd7 c0bb 5797 38bc
00000230: f0d1 7fbc 5755 523c a5f1 febc b572 dfbb
00000240: e5cd fd3c 5b51 db3c e417 a53c bfb5 83bd
00000250: 41e5 a5bd 3701 d9bc 77b0 1ebd c683 b8bc
00000260: 95dc b6ba 7363 d7bb 251a 97bd 5719 f0bc
00000270: fa6e 0dbb 246a d83c 124c a93c 0701 e93c
00000280: 076f 7b3c d238 5bbd bdc2 8dbd 1fb6 61bd
00000290: 92b0 ffbc 36c6 aa3b ff27 ddbc 181b 68bd
000002a0: 548e 55bd b5af 4b3d 2d5f d23c 995f c93c
000002b0: da34 1cbd bda3 0ebd e28b 1ebd 0489 02bd
000002c0: fe4e e53c 6cac 223d 2548 823c 8f06 abbc
000002d0: 603d 44bd 8ae9 af3a 93e9 65bd c249 1cbd
000002e0: 7c94 20bb 8dd7 a8bd ca54 41bc 8d74 793c
000002f0: 752e 04bd 5406 64bd 9e87 09bc 8aa4 b2bb
00000300: f4b1 9e3c 0d18 d03c a6e0 b33c 6b01 84bd
00000310: 8ccf 2abd 19fc 4abc 87dc 37bd f098 9bbc
00000320: dbce 3dbd c729 bf3c 1c10 073c 6b45 373d
00000330: 7d37 04bd 39dd 223d fa3a adbc 6abb bbbb
00000340: 3d1d 463c 58d4 84bd cba5 cbbb 7e04 d5bc
00000350: b97c 023d 87fc 03bd 0852 80bd c902 483d
00000360: ec5b 90bc bf29 f63c b814 49bd 83c9 90bd
00000370: 84d6 eebc 638c 90bd e5ad 293d 5919 7dbd
00000380: 3429 34bd b178 bbbc 541b 2d3c b894 363c
00000390: dea2 33bc 4f64 50bd 7def 81bd 9e05 32bd
000003a0: 5b2b 6bbd df2e eabc 5047 643d 81f0 00bd
000003b0: 1257 bebb e52f b53c 7539 20bb 21a0 1abd
000003c0: 6a62 28bc cb27 4a3c 16e0 e6bc 7568 8dbd
000003d0: 9fc4 7d3c b980 ff3b ba15 80bd d761 3cbd
000003e0: 8a77 babc eb38 83bc 364b 00bc 1ab8 63bd
000003f0: 0f89 a6bd e0ee 063d 78f4 933c 87a1 4fbd

fc2.bias f4 [132]
-0.043496016 -0.002086754 0.021369904 0.049635652 0.012855559 -0.0034901265 0.0031246678 0.045664284
0.041591093 0.02433717 0.029107256 -0.045835607 0.082715504 0.057398494 -0.038031332 0.019763071
0.01959752 0.004647896 -0.03956679 0.0099705625 0.056494545 0.055969995 0.06242968 0.004110439
0.029690273 0.067210406 -0.045603946 0.07631735 -0.012462771 0.04214446 -0.0148961 -0.040711887
0.0141841015 0.022578895 0.03921438 0.018251214 -0.033095904 -0.0029378403 -0.023641387 0.026818844
0.025384536 0.044930305 0.052045055 0.024927175 -0.04639494 -0.039160527 0.044888075 -0.069276005
-0.044956252 0.031419113 0.06060949 -0.0053839353 -0.01648832 0.014647456 0.074092284 0.050552778
-0.012395685 0.059790436 -0.019769067 0.038069393 0.020909136 0.06492636 -0.0466781 -0.010254844
0.029477626 -0.08024831 -0.023317052 0.036236662 0.009424021 -0.024593465 -0.077725194 0.015663454
0.0573252 0.108796544 -0.0069940677 0.06172977 -0.00051453995 0.03383878 0.022498026 -0.010977086
-0.004774743 0.058312044 0.032745752 0.07462451 0.09656649 0.045955308 0.037757933 0.02774973
-0.004097373 -0.08746337 0.0032463383 0.07901332 -0.002169936 0.06546716 0.044551015 0.011961943
-0.038511284 0.08206391 -0.0014247285 -0.02545253 -0.013908753 0.06759512 0.034001555 0.032414548
-0.075712286 0.0012882069 0.0418448 0.09708345 0.029723052 0.051108174 0.045822207 -0.026359865
-0.01801551 0.046895877 0.05155755 0.04751558 -0.029135602 0.039041992 -0.0013451031 0.01964557
0.05767698 0.03248846 -0.051954903 0.06874095 0.061765462 0.026361715 0.0793352 0.015178689
-0.023445226 -0.031040814 -0.0013820382 0.0009858406
00000000: e128 32bd ecc1 08bb f00f af3c c14e 4b3d
00000010: 1fa0 523c 9bba 64bb 3ac7 4c3b 790a 3b3d
00000020: 6c5b 2a3d bf5e c73c 5772 ee3c 1ebe 3bbd
00000030: bf66 a93d af1a 6b3d bec6 1bbd 2ae6 a13c
00000040: fa8a a03c 614d 983b c910 22bd 925b 233c
00000050: d366 673d cb40 653d 44b6 7f3d ddb0 863b
00000060: 0439 f33c 9ca5 893d 34cb 3abd 454c 9c3d
00000070: a630 4cbc ab9f 2c3d c60e 74bc 82c1 26bd
00000080: 6f64 683c 60f7 b83c 429f 203d 9283 953c
00000090: 928f 07bd c888 40bb 95ab c1bc 31b3 db3c
000000a0: 3bf3 cf3c d708 383d 322d 553d 1334 cc3c
000000b0: 9f08 3ebd ca66 20bd 8fdc 373d 94e0 8dbd
000000c0: 0c24 38bd 54b1 003d a841 783d b96b b0bb
000000d0: 8312 87bc e2fb 6f3c b2bd 973d 6e10 4f3d
000000e0: 4517 4bbc d1e6 743d bdf2 a1bc a7ee 1b3d
000000f0: a349 ab3c 1df8 843d 8931 3fbd ef03 28bc
00000100: 107b f13c 3a59 a4bd 6703 bfbc e56c 143d
00000110: 3567 1a3c 3c78 c9bc 632e 9fbd a550 803c
00000120: d4cd 6a3d b9d0 de3d 7e2e e5bb 5bd8 7c3d
00000130: 31e2 06ba 889a 0a3d c84d b83c 3cd9 33bc
00000140: 7375 9cbb 9cd8 6e3d 6920 063d bcd4 983d
00000150: a7c4 c53d a23b 3c3d 10a8 1a3d 6753 e33c
00000160: 4243 86bb ff1f b3bd 85c0 543b bcd1 a13d
00000170: 7c35 0ebb a513 863d 207b 363d 06fc 433c
00000180: 02be 1dbd 2011 a83d f5bd baba d381 d0bc
00000190: 8ae1 63bc 4f6f 8a3d 3745 0b3d 1ec5 043d
000001a0: 0b0f 9bbd 0dd9 a83a 7465 2b3d b0d3 c63d
000001b0: c27d f33c ce56 513d 11b0 3b3d a5f0 d7bc
000001c0: 4395 93bc e415 403d 022e 533d b29f 423d
000001d0: c9ad eebc 7fea 1f3d 2c4e b0ba bfef a03c
000001e0: b23e 6c3d 9f12 053d aace 54bd 0ec8 8c3d
000001f0: c8fd 7c3d 86f4 d73c 7e7a a23d 09b0 783c
00000200: 3410 c0bc 4e49 febc 8225 b5ba 5237 813a

fc3.weight f4 [100, 132]
-0.046567567 0.095646456 0.012229251 -0.027638206 0.07107831 0.046295054 -0.08299819 0.071831144
-0.073508255 0.0371822 -0.053027533 0.12606089 -0.07204935 -0.04108812 -0.044187263 -0.08290802
-0.14161307 -0.024822803 0.09244304 0.019174121 0.10119136 -0.04742594 0.07213163 -0.022710267
0.037853304 0.083527766 0.08135475 0.09383522 0.1131012 -0.027395481 -0.009280773 0.06435002
-0.025401212 0.03160437 -0.025882369 0.08764831 -0.017685425 0.07785395 -0.034427837 0.03533061
-0.009415624 -0.050921023 0.12489214 0.07095103 -0.10264834 -0.08802369 0.038247023 -0.03475977
0.017757317 0.07817124 0.046848863 0.06373035 -0.04043851 0.02290605 -0.056520097 0.06585106
0.069598794 0.094824515 0.08041508 -0.116977625 0.11182812 -0.005922255 -0.0055337953 -0.0121990265
0.05428699 -0.0126776565 0.03340405 -0.10410771 -0.12796505 0.08749817 -0.018303141 -0.070557065
0.022397548 -0.018642904 0.1031857 -0.009023408 0.024274606 0.10190135 -0.083513744 -0.0017779515
0.042744715 0.011315944 0.024298755 -0.01127311 0.041447 -0.096782476 0.04829701 0.04903451
-0.03318774 -0.11050416 0.02336554 -0.020038368 -0.046930026 -0.13183 -0.07832999 -0.077484764
-0.015174368 -0.018988904 0.111890055 -0.08362813 -0.024655024 0.12489732 0.097977236 -0.05125775
-0.022425627 -0.0878942 -0.041278373 0.06167478 0.010035202 0.07639197 -0.02501908 0.12230909
0.13622302 -0.105653964 0.03582901 0.03279109 -0.0020365168 -0.110232435 0.013527494 -0.13012308
0.07325928 -0.062260434 0.044004623 0.018023957 -0.15794526 0.008067493 -0.03054233 -0.018794134
-0.026860574 -0.09938178 0.08969889 0.085910246 -0.025961014 -0.09382701 0.04025178 0.07923822
-0.052108984 -0.11173061 0.06671469 0.011152819 0.066586554 -0.033945806 0.10985391 0.024106111
-0.016896388 0.10711983 0.039437007 0.038055293 -0.03154348 0.032693997 0.075942874 -0.072715186
-0.03274244 0.19051471 -0.077634625 0.037802603 -0.08352771 -0.0530934 0.08725539 0.03903225
-0.07808261 0.086771615 -0.04893493 -0.029179022 0.049203377 -0.06625348 0.029842464 0.033999916
-0.10320964 0.005653919 0.052499488 -0.13836469 0.04897006 0.01618846 0.04078335 0.15100814
0.058898106 0.08719056 -0.05792053 0.10631847 0.08783586 0.10397587 -0.06500553 -0.026511354
0.10522029 -0.09818605 0.084427975 0.026543085 0.0063314456 0.003970204 -0.04608842 0.024479713
-0.037684564 0.030489152 0.0035393995 -0.09067459 0.018934853 0.020533558 -0.060006276 0.121932544
0.12519424 -0.06995925 0.026945543 0.014033667 0.06835737 0.085530415 -0.025493797 0.0961194
0.0038857223 0.03624256 0.07865524 0.07513074 -0.06488744 0.06563332 -0.024819607 0.103521645
0.0603798 0.09110507 -0.008071869 -0.053195782 -0.083555974 0.010695991 -0.026784366 -0.046741243
0.052173097 0.009200721 0.017274555 -0.02298168 -0.11001442 0.07096283 -0.09486558 0.11940489
-0.017544102 0.035908967 -0.047927577 0.046517555 -0.14732797 0.023703726 0.055581547 0.09364022
0.02910027 0.08672368 -0.027905373 -0.043466724 -0.022527797 0.02232983 -0.04019151 0.024347022
-0.03530747 0.055418175 -0.004863804 -0.01629586 0.054964695 0.055926967 -0.07176073 0.037677582
00000000: a2bd 3ebd 4ae2 c33d 325d 483c 8569 e2bc
00000010: 8191 913d e29f 3d3d f4fa a9bd 351c 933d
00000020: 7f8b 96bd 5d4c 183d 6633 59bd 1b16 013e
00000030: 9c8e 93bd 044c 28bd b4fd 34bd aecb a9bd
00000040: 0403 11be 3159 cbbc c752 bd3d 0c13 9d3c
00000050: 6a3d cf3d b441 42bd bfb9 933d e20a babc
00000060: 110c 1b3d 9b10 ab3d 529d a63d ae2c c03d
00000070: 9aa1 e73d 7d6c e0bc 620e 18bc f1c9 833d
00000080: 3416 d0bc 9573 013d 4307 d4bc f580 b33d
00000090: 06e1 90bc e471 9f3d 3404 0dbd d4b6 103d
000000a0: fd43 1abc 9092 50bd 73c7 ff3d c64e 913d
000000b0: 4b39 d2bd c445 b4bd e9a8 1c3d 4360 0ebd
000000c0: cb77 913c 3e18 a03d 98e4 3f3d 0f85 823d
000000d0: daa2 25bd 78a5 bb3c 9e81 67bd ecdc 863d
000000e0: d089 8e3d 5b33 c23d a9b0 a43d f791 efbd
000000f0: 2406 e53d 7a0f c2bb d754 b5bb 6dde 47bc
00000100: 095c 5e3d f2b5 4fbc afd2 083d 6c36 d5bd
00000110: 4509 03be 3e32 b33d 78f0 95bc 3980 90bd
00000120: 107b b73c 01b9 98bc 0653 d33d ebd6 13bc
00000130: 8adb c63c a8b1 d03d 4109 abbd 270a e9ba
00000140: 1515 2f3d 8266 393c 2f0e c73c dab2 38bc
00000150: 54c4 293d e435 c6bd 16d3 453d 69d8 483d
00000160: deef 07bd 0150 e2bd 1769 bf3c 8127 a4bc
00000170: b339 40bd 72fe 06be 796b a0bd 55b0 9ebd
00000180: ea9d 78bc 9e8e 9bbc 9d26 e53d 3a45 abbd
00000190: 55f9 c9bc 2bca ff3d 4aa8 c83d a5f3 51bd
000001a0: f3b5 b7bc e001 b4bd 8313 29bd b29e 7c3d
000001b0: b06a 243c 6573 9c3d d0f4 ccbc 307d fa3d
000001c0: 0c7e 0b3e 1b61 d8bd 71c1 123d f34f 063d
000001d0: 1577 05bb 8bc1 e1bd 6ca2 5d3c fc3e 05be
000001e0: f608 963d cc04 7fbd 313e 343d faa6 933c
000001f0: 67bc 21be 852d 043c e933 fabc 28f6 99bc
00000200: b50a dcbc ad88 cbbd 0db4 b73d b6f1 af3d
00000210: 31ac d4bc 6028 c0bd 0ddf 243d a647 a23d
00000220: 3b70 55bd 05d3 e4bd b6a1 883d 50ba 363c
00000230: 885e 883d c20a 0bbd 16fb e03d 2e7a c53c
00000240: 4b6a 8abc a461 db3d b388 213d dedf 1b3d
00000250: bc33 01bd 24ea 053d f087 9b3d b3eb 94bd
00000260: f01c 06bd 4a16 433e e7fe 9ebd e7d6 1a3d
00000270: 9310 abbd 7778 59bd f4b2 b23d 48e0 1f3d
00000280: c7e9 9fbd 51b5 b13d fe6f 48bd d808 efbc
00000290: 7b89 493d e8af 87bd 2f78 f43c 7f43 0b3d
000002a0: 935f d3bd 8344 b93b b409 573d 79af 0dbe
000002b0: d494 483d a99d 843c 710c 273d e1a1 1a3e
000002c0: 243f 713d f790 b23d 143e 6dbd 7fbd d93d
000002d0: 4ae3 b33d 4df1 d43d 9f21 85bd 572e d9bc
000002e0: bc7d d73d c515 c9bd 93e8 ac3d e270 d93c
000002f0: 0478 cf3b 7c18 823b 36c7 3cbd ae89 c83c
00000300: 215b 1abd 63c4 f93c 45f5 673b 99b3 b9bd
00000310: 441d 9b3c fe35 a83c 24c9 75bd c5b7 f93d
00000320: eb32 003e cc46 8fbd e6bc dc3c 77ed 653c
00000330: f3fe 8b3d 922a af3d 5ed8 d0bc 3fda c43d
00000340: 9aa7 7e3b 1473 143d 0016 a13d 25de 993d
00000350: b5e3 84bd c36a 863d 7d52 cbbc 2803 d43d
00000360: cf50 773d 4c95 ba3d df3f 04bc d2e3 59bd
00000370: 651f abbd 3d3e 2f3c e36a dbbc bf73 3fbd
00000380: 75b3 553d 9fbe 163c 5e83 8d3c 1444 bcbc
00000390: 3d4f e1bd f654 913d e348 c2bd 8d8a f43d
000003a0: a6b8 8fbc 4815 133d b54f 44bd 3189 3e3d
000003b0: 25dd 16be 512e c23c 7aa9 633d 72c6 bf3d
000003c0: b063 ee3c 2f9c b13d cf99 e4bc 2a0a 32bd
000003d0: 378c b8bc 0ced b63c da9f 24bd 6873 c73c
000003e0: 919e 10bd 2bfe 623d 8c60 9fbb e57e 85bc
000003f0: a922 613d ad13 653d 4af7 92bd cf53 1a3d

fc3.bias f4 [100]
-0.06785101 -0.015445079 -0.07120578 0.03684267 0.11249091 0.118321225 -0.031610325 -0.06259219
-0.014732157 0.083259344 -0.043087933 0.09524345 -0.038678594 0.019509573 0.08414455 -0.10763745
0.05164829 0.066308446 0.11115444 -0.041774053 0.0542017 0.027687512 0.09336152 0.0716701
-0.029046811 -0.061698437 -0.0065801507 -0.03089434 -0.107530266 -0.014908867 -0.080848016 0.02242417
0.10761841 0.019420676 0.028506992 -0.031341046 0.0642522 -0.05657862 -0.00754852 0.05113123
0.013089955 0.11570503 -0.053625185 -0.0040892735 0.025336383 0.052707072 0.08564195 0.026287057
-0.012163195 -0.024910262 0.053983226 0.030930234 -0.03485625 0.028651299 0.0025904411 0.077100866
-0.08559393 0.0051846057 0.08080924 -0.04190725 0.1328196 0.09272254 -0.05298107 0.06321299
-0.0055210986 -0.06454738 -0.057979748 -0.016294183 -0.03682892 -0.0924093 0.044200495 0.12080647
-0.026576953 0.04363445 0.067787655 0.03719612 0.08073252 0.06980825 0.045904282 0.04142586
0.02005374 -0.04835577 -0.0053321742 0.012923055 0.06306445 -0.026396234 0.06000135 0.09384757
-0.025970079 0.010664794 0.10376426 0.044867095 0.07736495 -0.0027728677 0.033624943 0.045867804
0.12170364 0.021284454 0.095371544 0.05424692
00000000: 78f5 8abd 5b0d 7dbc 56d4 91bd 57e8 163d
00000010: a261 e63d 6652 f23d d479 01bd 5630 80bd
00000020: 255f 71bc e083 aa3d f97c 30bd ff0e c33d
00000030: 726d 1ebd 8ad2 9f3c fa53 ac3d 0671 dcbd
00000040: 288d 533d b9cc 873d f0a4 e33d 451b 2bbd
00000050: 9a02 5e3d ecd0 e23c 5334 bf3d c6c7 923d
00000060: 94f3 edbc 80b7 7cbd 4e9e d7bb 2016 fdbc
00000070: d438 dcbd 5244 74bc a593 a5bd e5b2 b73c
00000080: 0a67 dc3d 1c18 9f3c 7f87 e93c 785f 00bd
00000090: a896 833d fcbe 67bd 9359 f7bb fb6e 513d
000000a0: 4077 563c c2f6 ec3d 15a6 5bbd 50ff 85bb
000000b0: 3f8e cf3c 5fe3 573d 0c65 af3d f457 d73c
000000c0: 2348 47bc 9b10 ccbc 841d 5d3d 6761 fd3c
000000d0: 6dc5 0ebd 21b6 ea3c 64c4 293b 0fe7 9d3d
000000e0: df4b afbd a0e3 a93b 517f a53d f0a6 2bbd
000000f0: dc01 083e 51e5 bd3d ae02 59bd d075 813d
00000100: 55ea b4bb 6b31 84bd 2c7c 6dbd 617b 85bc
00000110: ecd9 16bd 1641 bdbd 940b 353d 6269 f73d
00000120: e9b7 d9bc 09ba 323d 41d4 8a3d f55a 183d
00000130: 1757 a53d a1f7 8e3d 2106 3c3d 2aae 293d
00000140: be47 a43c b310 46bd 85b9 aebb 39bb 533c
00000150: ef27 813d ea3c d8bc fac3 753d 2833 c03d
00000160: 34bf d4bc 63bb 2e3c 5b82 d43d 8fc6 373d
00000170: 8471 9e3d 00b9 35bb 4fba 093d e1df 3b3d
00000180: c23f f93d bc5c ae3c 2852 c33d 0532 5e3d

fc4.weight f4 [10, 100]
0.14438318 -0.08444817 -0.11996984 -0.11309273 -0.011396965 0.06342946 -0.16182482 -0.14732642
-0.1086114 0.10824586 -0.0034212251 -0.14887765 -0.07777443 0.10305181 0.08576076 -0.05630806
0.043619603 -0.052664895 -0.008413104 0.04084324 -0.07080878 0.025284745 0.08821982 0.11143113
-0.1110232 -0.09675683 -0.08642758 0.02060602 0.06512303 0.01541558 -0.0038771597 0.04864053
-0.16311426 -0.03333468 -0.06679868 0.02391102 -0.17881845 0.0037385302 -0.08491883 0.09161422
-0.14675829 -0.0044360543 -0.16477935 0.044908594 -0.12116695 -0.08756996 -0.1465551 -0.0559742
0.024300963 0.052877836 0.07392214 -0.11484307 -0.043415867 0.12271874 -0.17955138 -0.044159602
0.10406821 0.042340785 0.0022751219 0.1161935 -0.19739218 0.03585414 0.03375724 0.0836577
-0.10043365 0.093291104 0.06916997 0.09678835 0.09527637 -0.2993477 -0.12885958 0.06797507
-0.11243616 -0.05685592 0.051640276 -0.09116384 0.09286613 -0.1421127 0.02733191 0.04483094
-0.10355824 0.0490988 -0.11059056 -0.17061867 -0.10112428 0.04655455 -0.09843768 -0.17916547
-0.10041073 -0.053911474 -0.1268322 0.08637177 -0.18419547 -0.15876107 -0.13354875 0.12341844
-0.09111539 0.08547009 -0.11024685 -0.06283262 -0.082441665 0.10100603 -0.01887341 -0.059346523
0.0996412 0.09671214 0.07727821 -0.109857075 -0.10547163 0.05710136 0.12606251 0.12427611
0.06515185 -0.15818083 0.09213153 -0.08895651 0.10209052 -0.03199462 -0.12660861 -0.13323501
-0.10669315 -0.08117074 0.04796935 -0.1980859 0.09566516 -0.065450616 -0.029728066 0.14070714
0.062615424 0.04138279 -0.052000307 -0.034403753 -0.18435746 -0.25720546 0.042346854 -0.120564684
-0.11438217 0.05375929 -0.13925524 -0.058743536 0.16207922 -0.098080955 0.089704484 -0.14390588
-0.0049607735 0.10754612 -0.15753348 -0.017005432 0.028804671 -0.08111044 -0.19201274 0.08367777
-0.031163668 -0.16328086 0.10345801 -0.17089322 -0.119471595 0.056998294 -0.22820248 -0.12560104
0.04443554 -0.17001952 -0.06611014 0.06380223 -0.04911076 -0.09769126 -0.10561016 -0.013743342
-0.06547788 0.045094043 0.033860322 -0.093786284 -0.015711745 -0.02837038 0.14710921 -0.09820446
-0.13247035 0.05235286 -0.006726012 -0.20218594 -0.054629423 -0.061738886 0.03199707 -0.05624608
-0.068523966 -0.13533057 -0.16884501 0.11382129 -0.102821 -0.13843475 0.13755774 -0.12914178
0.14064725 0.13478515 0.014331864 -0.1874342 0.0111549 -0.08558239 0.024958974 0.11782342
0.017552232 -0.057243705 0.09445132 -0.1218894 -0.073604606 0.008996901 -0.1220028 -0.071186684
-0.023661107 -0.030416947 -0.1088819 0.022894401 0.030823417 -0.028692711 -0.013464823 -0.057653386
0.07460675 0.07217764 -0.09812487 -0.06085915 0.07755925 -0.11152366 0.09038022 -0.09669291
0.044564266 -0.089408405 -0.034240983 -0.117543235 0.074354805 0.114996955 0.06671076 -0.15106465
-0.1464376 -0.089571215 0.11169975 -0.0038462977 0.01936266 -0.06666597 0.07596889 0.001725355
0.077837706 -0.16869056 0.050783392 0.07722833 -0.119663656 -0.11478127 -0.18005607 -0.06439456
0.109596506 -0.111641124 -0.006344688 -0.17476851 0.078637935 0.07853497 0.0096503375 0.08561649
00000000: 2fd9 133e 2af3 acbd bfb2 f5bd 299d e7bd
00000010: 56ba 3abc 4ee7 813d 68b5 25be bddc 16be
00000020: a76f debd 01b0 dd3d a236 60bb 6273 18be
00000030: 3348 9fbd d40c d33d 56a3 af3d 48a3 66bd
00000040: 78aa 323d 25b7 57bd 1ed7 09bc 3e4b 273d
00000050: 3204 91bd f421 cf3c 98ac b43d 0136 e43d
00000060: 2260 e3bd 7228 c6bd f100 b1bd f5cd a83c
00000070: 395f 853d a191 7c3c f217 7ebb 4b3b 473d
00000080: 6d07 27be f289 08bd bfcd 88bd 0be1 c33c
00000090: 2f1c 37be 2102 753b ece9 adbd 3ca0 bb3d
000000a0: ce47 16be 525c 91bb ebbb 28be 13f2 373d
000000b0: 6126 f8bd e157 b3bd 8a12 16be 3445 65bd
000000c0: d012 c73c 6e96 583d 7e64 973d d832 ebbd
000000d0: d6d4 31bd f653 fb3d 51dc 37be b3e0 34bd
000000e0: b721 d53d 886d 2d3d 361a 153b dcf6 ed3d
000000f0: 2d21 4abe cadb 123d 0845 0a3d ba54 ab3d
00000100: 28b0 cdbd 680f bf3d fca8 8d3d f838 c63d
00000110: 4220 c33d 1a44 99be c4f3 03be 8336 8b3d
00000120: ee44 e6bd c1e1 68bd c184 533d 1bb4 babd
00000130: 9930 be3d fe85 11be 2be7 df3c a6a0 373d
00000140: 5816 d4bd d31b 493d 4e7d e2bd a9b6 2ebe
00000150: 3f1a cfbd fcaf 3e3d b299 c9bd 2777 37be
00000160: 24a4 cdbd 47d2 5cbd 4de0 01be afe3 b03d
00000170: bd9d 3cbe 4392 22be 01c1 08be cfc2 fc3d
00000180: b59a babd f10a af3d 1ac9 e1bd 64ae 80bd
00000190: 2dd7 a8bd 40dc ce3d 699c 9abc 5715 73bd
000001a0: af10 cc3d 0411 c63d 0a44 9e3d bffc e0bd
000001b0: 8301 d8bd 1ee3 693d 8816 013e 7984 fe3d
000001c0: 556e 853d 28fa 21be 75af bc3d d52e b6bd
000001d0: d614 d13d ca0c 03bd b0a5 01be c26e 08be
000001e0: f081 dabd d83c a6bd 827b 443d 08d7 4abe
000001f0: 18ec c33d f90a 86bd 4688 f3bc 8815 103e
00000200: 843c 803d 0081 293d 46fe 54bd f3ea 0cbd
00000210: 34c8 3cbe 6fb0 83be e573 2d3d 9eea f6bd
00000220: 3341 eabd b432 5c3d ed98 0ebe 109d 70bd
00000230: 18f8 253e abde c8bd fcb6 b73d 105c 13be
00000240: fc8d a2bb 2441 dc3d 7550 21be fa4e 8bbc
00000250: c6f7 eb3c 3b1d a6bd fd9e 44be 405f ab3d
00000260: f34a ffbc 1933 27be cbe1 d33d a2fe 2ebe
00000270: 86ad f4bd 0b77 693d e9ad 69be 8f9d 00be
00000280: 0a02 363d 9919 2ebe c164 87bd beaa 823d
00000290: 5d28 49bd 5b12 c8bd 244a d8bd c12b 61bc
000002a0: 4419 86bd 88b4 383d 1fb1 0a3d 0613 c0bd
000002b0: ebb5 80bc 0069 e8bc cca3 163e 6c1f c9bd
000002c0: 4fa6 07be f46f 563d e165 dcbb d509 4fbe
000002d0: 1ac3 5fbd eae1 7cbd 5c0f 033d 4a62 66bd
000002e0: 4b56 8cbd 1994 0abe b5e5 2cbe 231b e93d
000002f0: d193 d2bd d7c1 0dbe f0db 0c3e be3d 04be
00000300: d505 103e 1e05 0a3e 32d0 6a3c c0ee 3fbe
00000310: 0bc3 363c d245 afbd c376 cc3c 684d f13d
00000320: b3c9 8f3c 6078 6abd b26f c13d 26a1 f9bd
00000330: 03be 96bd bd67 133c 9bdc f9bd 53ca 91bd
00000340: f0d4 c1bc f62c f9bc 79fd debd 0a8d bb3c
00000350: 6481 fc3c fa0c ebbc 909b 5cbc f525 6cbd
00000360: 6ccb 983d dfd1 933d b1f5 c8bd 7247 79bd
00000370: 62d7 9e3d 8466 e4bd 4419 b93d ef06 c6bd
00000380: 0589 363d c11b b7bd 4640 0cbd 82ba f0bd
00000390: 5547 983d 8683 eb3d a79f 883d b1b0 1abe
000003a0: bdf3 15be 1d71 b7bd d7c2 e43d 2b12 7cbb
000003b0: 719e 9e3c 2b88 88bd 9495 9b3d 4f25 e23a
000003c0: 6069 9f3d 38bd 2cbe 3f02 503d e329 9e3d
000003d0: 3812 f5bd 7112 ebbd 9e60 38be 4ce1 83bd
000003e0: 2274 e03d 1aa4 e4bd 1ae7 cfbb 84f6 32be
000003f0: ed0c a13d f1d6 a03d 731c 1e3c b357 af3d

fc4.bias f4 [10]
0.00079431094 0.01963455 -0.0011934096 -0.034536738 0.098982036 0.103352904 -0.008685659 -0.08134333
0.0074323597 -0.027906647
00000000: 4e39 503a a3d8 a03c 2e6c 9cba 6576 0dbd
00000010: 18b7 ca3d b0aa d33d 4b4e 0ebc 5597 a6bd
00000020: 278b f33b 7b9c e4bc
