s1_development_environment/exercise_files/final_exercise/best_checkpoint.pth (torch, 999455 bytes, 8 tensors)

fc1.weight f4 [256, 784]
00000000: b61f 09bd 20e1 983a 0088 e1b7 0128 113d
00000010: 936f abbc e604 de3c d250 cb3c 00da 75bb
00000020: 4632 6bbc 820f ce3c 6353 dcbc 98dd e83c
00000030: 1991 85bc 4720 2fbc 334e 8b3c 137e e7bc
00000040: dd53 6ebb 6edf 3cbb 7107 cdbb 040b f9ba
00000050: 0d06 99bc 089a aa3c 7048 963c 54ac 013c
00000060: 4c43 d13c 1f71 093d 8eb4 02bd 2c12 acbc
00000070: 0595 f7bc 9cd3 2dbc 86e2 20bc 18f2 67bc
00000080: c020 26bc 0e16 e5bc 37f2 0f3d 6d62 b0bc
00000090: 858c 9abb 275d 6fbc dcf7 473c e325 c33c
000000a0: 8cde 9a3c fee1 033d 75f5 083d 4266 2d3c
000000b0: dd4f bbb9 ad1a a5bc 0941 cf3c 2c5b 9a3a
000000c0: 2fdc c13c 2a06 303c 08b6 be3c 86fc 6a3c
000000d0: e3f3 e4bc 90b9 3fbb 2269 c83c a08b f7ba
000000e0: 65a3 9cbc 3261 3dbc 0fb4 07bd 1080 813c
000000f0: 0ae1 89bc 42c4 adbc 14b3 e6bc 9e99 30bc
00000100: 59b7 c53c 2060 20bc ed69 793c b925 293c
00000110: c20b 3a3d 9f7a 36bb e0fc 31bc 2b77 203d
00000120: 25b9 ea3c 8f04 9e3c 2c83 7fbc 08ab 64bc
00000130: 5c91 b1bc 5693 0a3c 8870 50bc 5989 1c3d
00000140: 142e 34bb f538 72bc f0fe 99bc 804b 643a
00000150: e065 3b3b 00c2 e23b 40f2 b7ba 7479 70bc
00000160: 4cd2 443c 4908 86bb f0bb 9fbc 6b70 3a3d
00000170: f0f0 4f3d b40a 8dbb b4d8 5b3d 233e 8f3b
00000180: b212 af3c 3422 193d a9b8 7e3d 8e99 f03b
00000190: ca0f af3c d6fe 463d 5226 fc3c 8988 b43c
000001a0: 85d6 c6bc c4c6 80bb dc0b b0bc 8e25 27bd
000001b0: 65c8 c73a 2b76 5bbc 6000 713c 22e2 d73c
000001c0: 6ee5 e03c 88ca d43b 5fc8 17bc e1a3 863b
000001d0: 762a dcbc adaa 84bc e87f a8bb e185 493d
000001e0: 76d9 18bc 6e62 193d 1b6a 573d c64f a63c
000001f0: c794 cd3c 9616 123d 1b00 a2ba 63ba bf3c
00000200: 3c1a 953c 6924 9e3b 6168 373d 1a48 ab3c
00000210: d51a 67bc 67d9 7cbc c099 16bd c5b0 11bd
00000220: 1f39 23bb a43e 07bb e53c d13b 46cd 60bc
00000230: f23d 6fbc 44ec 803c 7485 f6bc e227 123b
00000240: e477 b2bc 7e02 113d 716a 193b 6059 b03c
00000250: 6a5a 0b3d 6d45 d03c 9fdc dab9 4d48 1e3c
00000260: dc36 273d b9a4 9ebc eb47 883c d9ec 2a3d
00000270: d26b d5bb a3ff 2e3c 7917 54bc e0b7 d53c
00000280: 1c98 653c d2aa 2cbc 1252 03bd ce83 61bc
00000290: 98e1 f1bc 8983 ee3c 19bd b6bb 38c3 39bc
000002a0: e888 183c f077 ed3c b871 553c 4199 57bc
000002b0: 4ce6 b3bc fad1 2e3d 1f2a df3c 33e7 cd3c
000002c0: c7af 4a3d d154 943c d7f6 b9bb db2d 8cbc
000002d0: ba54 cf39 39d6 a2bb 00e0 8a3c c1b0 5a3b
000002e0: 641a fc3c 4115 b3bb cd3e f63c 5be8 31bb
000002f0: 615e 26bd e5c7 04bd 2029 82bc 5f04 8d3c
00000300: 57a8 edbc f226 ef3c 3ae7 903c 5c3d c2bc
00000310: 0045 a13c 4016 99bc b122 c73c ff37 553b
00000320: d846 e53b 0a7e 283d 719b 0fbb 4187 93bc
00000330: 043c 273b 479d 57bc 4b72 f53a 5621 f23b
00000340: 4455 c63c 9549 5bbc d3bb dabc 741e d2bc
00000350: 0ea2 043b 98ec ca3c 2ab8 02bc c6af 42bb
00000360: 900f be3a cad2 dcbc 1322 cfbc a523 a1bb
00000370: 17c8 c9bb 32ac 553b d5fe 8ebc a2c4 d7bb
00000380: 66d8 fc3c 19a2 c03c 801d d1bc a152 30ba
00000390: 8423 f83c c6d0 24bb 7496 e1bc bfa4 4c3b
000003a0: bfe9 8e3c 3694 153b df5d 80bc 1188 2e3c
000003b0: d470 633c 5a06 d33c ee0c d8bc a613 c03b
000003c0: c220 983c b664 0fbc aea6 1fbd e225 a5bc
000003d0: 688c 603c 49cc 863b f938 ccbb d6e4 a8bc
000003e0: 4274 6bbc 145b 34bd d373 083c ca7f c4b9
000003f0: 6d4c afbb a4b9 e6bc 7847 1c3c 0899 143d
-0.033477508 0.0011663772 -2.688542e-05 0.03543854 -0.020927226 0.027101945 0.024818812 -0.0037513971
-0.014355248 0.02515388 -0.02689523 0.028425977 -0.01630454 -0.010688848 0.017005062 -0.028258359
-0.0036365904 -0.0028819698 -0.0062569906 -0.0019000475 -0.018679643 0.020825401 0.018345088 0.007914621
0.025544785 0.033555146 -0.03191047 -0.021004759 -0.030222425 -0.010609534 -0.009819632 -0.014156841
-0.010139644 -0.027964618 0.035143103 -0.021531308 -0.0047164583 -0.014609612 0.01220509 0.023821777
0.018904947 0.032197945 0.03343721 0.010583462 -0.00035726922 -0.020154322 0.025299566 0.0011776439
0.023664562 0.010743657 0.023280159 0.014342433 -0.027948325 -0.002925489 0.024464194 -0.0018886216
-0.019120881 -0.011558818 -0.0331307 0.015808135 -0.01683094 -0.021211747 -0.028161563 -0.010778813
0.024135279 -0.009788543 0.015223009 0.010323935 0.04542137 -0.0027844084 -0.010863513 0.039176147
0.028652737 0.019289283 -0.015595239 -0.013956793 -0.021675758 0.008457979 -0.012722142 0.038216922
-0.0027493285 -0.014784087 -0.018798321 0.000870876 0.0028594658 0.0069200993 -0.0014033988 -0.014677394
0.012013029 -0.004090343 -0.019498795 0.045517366 0.050766885 -0.0043042544 0.05367346 0.004371421
0.02137122 0.037386134 0.062187824 0.007342524 0.021369833 0.048582874 0.030779991 0.022037761
-0.024272213 -0.0039299447 -0.02149003 -0.0408073 0.0015242217 -0.013394873 0.014709562 0.026352946
0.02745315 0.00649387 -0.009264081 0.0041088914 -0.026875716 -0.016194666 -0.0051422007 0.049199942
-0.0093291905 0.037447385 0.052591424 0.02030171 0.025095357 0.03566607 -0.001235965 0.023404306
0.018200986 0.004826118 0.044777278 0.020908404 -0.014105518 -0.015432692 -0.03676772 -0.03556897
-0.0024905873 -0.0020636702 0.006385433 -0.013720816 -0.014602171 0.01573766 -0.030092932 0.0022301604
-0.021785684 0.035402767 0.0023409391 0.021526992 0.034021772 0.02542373 -0.00041744576 0.009660793
0.040823802 -0.019365655 0.016635856 0.04172978 -0.0065130973 0.010681066 -0.012945049 0.026088655
0.0140133165 -0.010538774 -0.03206069 -0.013764335 -0.029526517 0.029115455 -0.0055767414 -0.011338048
0.009309985 0.028987855 0.013027601 -0.013159097 -0.0219604 0.042680718 0.027241765 0.025134658
0.04948404 0.01810685 -0.0056751776 -0.01711171 0.00039545243 -0.004969385 0.016952515 0.0033369514
0.030774303 -0.00546518 0.030059243 -0.0027146551 -0.04061735 -0.032417197 -0.01588875 0.017213998
-0.029010935 0.029193375 0.017688382 -0.023710899 0.019686222 -0.018687367 0.024308534 0.0032534597
0.0069969706 0.041135825 -0.0021912719 -0.01800883 0.002551795 -0.013160056 0.0018726079 0.007389228
0.02421058 -0.013384243 -0.02670089 -0.025649287 0.0020238194 0.02477102 -0.007978478 -0.002970682
0.0014500488 -0.02695598 -0.025284803 -0.0049175792 -0.006157886 0.0032603857 -0.017455498 -0.0065847198
0.030864906 0.023514794 -0.025526762 -0.000672618 0.030290373 -0.0025148853 -0.027537562 0.0031226126
0.017445443 0.0022823936 -0.015669761 0.010652558 0.013881881 0.025759865 -0.026373353 0.0058617173
0.018570308 -0.008752039 -0.038977318 -0.020159665 0.01370535 0.004113708 -0.0062323776 -0.02061693
-0.01437098 -0.04403217 0.008328396 -0.00037479243 -0.005349687 -0.028164692 0.009538524 0.036278754

fc1.bias f4 [256]
00000000: e2ba 3d3d c3ec c1bc 23a3 793c 5f67 753c
00000010: 8b2e ee3c e991 e7bc 204b bb3b 7981 423d
00000020: 5862 223d 5dd6 b0ba 9813 f23c 8757 ac3c
00000030: 34c5 ee3c a56b 7d3c 1ce3 bb38 61b4 543d
00000040: 878f 87bc c636 1cbc ed38 003d 5e6c aabb
00000050: 7905 fa3c 383e 98bc d3c5 89bc 5f16 a23c
00000060: cfa8 2c3c e45b 05bc 8aeb 143c ada3 cb3c
00000070: 8450 1a3d 5c71 8e3c 1cac 81bc b371 373c
00000080: e2b0 bd3c f074 c9bc c0d7 603c 35db 57bc
00000090: 087e 4cbc b0d6 0a3c 5d76 903c cfc6 babb
000000a0: 14fb 443c 017c 3b3d 40d7 f53c 01d8 d63b
000000b0: 2717 193d b6d4 b1bc 7c79 e33c 63cb c13b
000000c0: 3de7 553c 76a0 143d 0f56 4f3b 0082 2e3d
000000d0: 83e2 963c 4ac1 45b9 17bb 7a3c 653e fb3c
000000e0: 4510 06bd 5ac3 0b3d 5340 113d c038 69bc
000000f0: b5d0 013d 7701 94bc 1e74 823b 7c61 e53c
00000100: 27b5 dfbc f915 e3bb 1508 01bd 7eac 27bc
00000110: dbe5 0d3d 6cdb 2a3d aa62 92bc f78c c13c
00000120: eeca 8c3a 1336 a23c 3035 0f3d cce6 aa3c
00000130: c7ea 793c 42f6 26ba 1f61 763c 6eef 9e3b
00000140: 251e e53b f97e 243d 7fde 603d 8e46 ac3c
00000150: f34f 213c fa7e 083c 2b47 2d3d 881a de3c
00000160: f18f 753c 3410 6b3c e1c2 473d 3847 4abc
00000170: 7a93 113d eda1 1b3d ae8e 9cbc 87d7 a53b
00000180: 8b12 d03c 4f04 a33c ef77 4bbc 277d 96bb
00000190: e30a 373c b16e db3c fc48 223d ac8c 42bc
000001a0: eeb5 cdbc dd32 1d3d 1907 a3ba 9406 b43c
000001b0: 4a7a d43c b0ed 273d 3028 c73c b0f0 f03c
000001c0: a643 5b3d c38e 89bb ac2b 4b3c f4c3 953c
000001d0: d441 193d d3c2 fe3c 0979 213c 28b0 57bc
000001e0: b70d d83c b6a8 4e3d a4ec 053d 0a88 003c
000001f0: dcfd b23b 4f2f 4abc d471 9b37 44ed a0bb
00000200: d359 033b d106 843c 0a2e 7fbb 1e9f d93c
00000210: 45a9 273d fbf3 1ebb 6171 2c3d 3838 ed3c
00000220: 5123 bdbc 5caa 0e3d 6a65 073d a34a 5cbc
00000230: 2fce 8a3c c1a0 a23c 734a 79bc 285d 76bb
00000240: a9de 8f3c 9ed0 b13b 1d8e babc 5d57 ebbb
00000250: d11f 29bc 70b2 ff3b 07f8 cebc 12bc 233d
00000260: b989 a9bc 0e2f 683c aa9d 093d 1532 cc3c
00000270: 53a5 52bc 5350 293c 09d1 383d b959 b03c
00000280: f89c 9fbc f24f a3bc a5a3 09bb a9a1 c93c
00000290: 43b6 e63c 3906 343d 575e 09bd f1b8 c13b
000002a0: f0cb ca3b 9830 c2bc 4f73 95bc 60b0 55ba
000002b0: 35af 143d c225 003c 99a6 b03c ebac 85bc
000002c0: fcf4 6dbc c667 753c 7ba4 033d 658a 67bc
000002d0: 14ee 483d bfa3 633d 0884 0e3d eebd 233d
000002e0: 2a39 223c be2c 2f3b ea84 133d f372 8ebb
000002f0: 3eca f73c ee3c 113d 5076 333d a93c 063d
00000300: 2ecc b13c 18d3 283c e278 15bc 4510 b43c
00000310: 969b 833c e9cc ecbc ec76 4e3d a060 22bc
00000320: 2610 213d 1a28 253d 3063 a43c 1def 513d
00000330: 28ac ff3c 4ef8 2ebb 2004 b63c d2b2 c63c
00000340: a921 ff3c b573 a63a 0638 d8bc 890e 643c
00000350: 3439 d83b e38a a83c 01ad 1f3d 049d b23c
00000360: 242c 1c3c d51a 8fbc d0c6 1c3d 4b3b 3c3d
00000370: 7242 d2bb 2786 323d c189 983a 4a98 3d3d
00000380: 721d b2bc 8011 1d3d faba 5d3c a667 dc3c
00000390: c755 973c 81fc 373d b75b f8bc a179 153d
000003a0: 8c33 523c f4a5 cc3b 8e4b 5ebc 99b7 513c
000003b0: 5371 803b b466 44bc 7fbe c5bb 7c5c 5b3d
000003c0: 071b 083d 45b9 c63b fbbc cebb 6012 f1bc
000003d0: 69b2 183d 7f05 0e3d 8761 fd3a 56ef bebb
000003e0: 4618 9e3c 7142 90bc d8b6 f8bc adb6 b3bb
000003f0: efca 493d 1e83 e83c dc5c e6bc 8ffa 963c
0.046320803 -0.023672467 0.015236649 0.014978259 0.029074928 -0.028267818 0.0057157427 0.047486756
0.03964457 -0.001349162 0.029550359 0.02103783 0.029146768 0.015467559 8.959157e-05 0.051929835
-0.016547931 -0.009534543 0.03130429 -0.0052009067 0.030520188 -0.018584356 -0.016817963 0.019786058
0.010538294 -0.008139584 0.00908936 0.02485832 0.037674442 0.017388038 -0.015829138 0.011196542
0.023155633 -0.024591893 0.013723314 -0.013174822 -0.01248122 0.008474037 0.017634565 -0.0056999694
0.012022752 0.045772556 0.030009866 0.0065565114 0.037375595 -0.021707874 0.02776789 0.005914138
0.01305562 0.03628584 0.0031636988 0.042604446 0.018418556 -0.0001885939 0.015303395 0.0306694
-0.03273036 0.03412185 0.035461735 -0.014234722 0.03169318 -0.018067105 0.0039811274 0.028000586
-0.02730806 -0.0069301096 -0.03150185 -0.010233996 0.034643035 0.041713163 -0.017869312 0.023626788
0.001074163 0.019801175 0.034962833 0.020862006 0.015253729 -0.0006369093 0.015037804 0.0048503196
0.006992119 0.040160153 0.05489969 0.021029737 0.009845722 0.008331055 0.0423042 0.02711226
0.014987932 0.014347125 0.048769835 -0.012346081 0.035541035 0.03799622 -0.019111004 0.0050610933
0.025399467 0.019899515 -0.012418731 -0.004592556 0.011172029 0.02678618 0.039620385 -0.011874359
-0.025111165 0.038378585 -0.0012438028 0.021975793 0.025937218 0.04099816 0.024311155 0.029411644
0.05353131 -0.0041979267 0.012400549 0.018281914 0.037416294 0.031098759 0.009855517 -0.0131645575
0.026373727 0.050453864 0.03269638 0.007844934 0.0054623913 -0.012340381 1.8530445e-05 -0.0049110968
0.0020042553 0.016116532 -0.0038937354 0.02656513 0.040932912 -0.002425431 0.042100314 0.028957471
-0.02308813 0.034830436 0.0330557 -0.013445529 0.01694402 0.019852044 -0.015215504 -0.0037592147
0.017562227 0.0054264804 -0.022772843 -0.0071820454 -0.010322527 0.007803254 -0.025264753 0.03997428
-0.020695554 0.014171375 0.033597626 0.024926225 -0.012856799 0.010334092 0.045121226 0.021527158
-0.019484028 -0.019935582 -0.002100208 0.024613218 0.028163081 0.043951247 -0.033537235 0.0059119393
0.006188862 -0.023704812 -0.01824346 -0.0008151587 0.036299903 0.007821502 0.021563815 -0.016317805
-0.014523741 0.014978355 0.032139283 -0.014132117 0.049055174 0.055576082 0.034793884 0.039976053
0.009901324 0.002672955 0.03601543 -0.004347199 0.030247804 0.035458498 0.043814003 0.032772694
0.021703806 0.010304235 -0.009123059 0.021980414 0.0160654 -0.028906303 0.05040638 -0.0099107325
0.03932204 0.040321447 0.020066828 0.051253427 0.03121002 -0.0026698294 0.022218764 0.02425519
0.03114398 0.0012699278 -0.026393902 0.013919481 0.006598616 0.020574039 0.03898335 0.021803387
0.009532008 -0.01746885 0.03827554 0.045954984 -0.0064166123 0.04358497 0.0011637734 0.046287812
-0.021742556 0.038346767 0.013533348 0.026904892 0.018473519 0.04491854 -0.03031717 0.036492947
0.012829673 0.006245369 -0.013567818 0.012800121 0.0039197593 -0.011987377 -0.006034672 0.053554997
0.0332289 0.0060645663 -0.0063091493 -0.029427707 0.03727952 0.03467321 0.0019331434 -0.005826871
0.019298684 -0.017609807 -0.030360624 -0.005484423 0.0492658 0.028382834 -0.02812045 0.018430023

fc2.weight f4 [132, 256]
00000000: d5b6 d13c 839f b23c 754c 1bbd 63de c7bc
00000010: c0da fb3c 24db 9e3c 6158 8a3d 50b3 63bb
00000020: f259 bebc a3d6 773d 6017 40bb 5591 3e3d
00000030: f60c 42bd b532 7cbd eb5b 37bd 37e0 69bd
00000040: c805 d63c 3d8d d6bc 0eac edbc 441b 523c
00000050: 07b5 0cbd dc60 6f3d a2ac c23c 62e6 d4bc
00000060: a370 2b3c 599b 893c 0c07 b23c ae9b 4abd
00000070: de5e e13c f4f3 d7bb 2015 993c 20c5 1c3d
00000080: 1218 913d d111 0dbd beb1 e63c 7c50 c3bc
00000090: 8637 cd3b f33e 763b f071 00bd ddf5 3eba
000000a0: f7e2 f4bc e53f 34bd 7a19 acbc a2c6 51bd
000000b0: da00 f6bc 74d2 8f3c d22a 31bc 4461 8f3c
000000c0: acfc 1c3d 9cae 47bd 5173 0b3d 36a3 f1bc
000000d0: 497b 2d3d 473f 9e3b ef5b 9b3d 204c f4bc
000000e0: 04fc efbc 31d5 d43c b194 71bd 4557 883d
000000f0: 89b4 3e3d f07e 0e3d 0ec6 32bc b3e8 373d
00000100: f73d 9a3c 4483 bebb 5427 ca3c 448d 31bd
00000110: 9975 7abd d11b f53a 26bc a53b f6ba 623d
00000120: 3065 243d 9851 30bd 7d52 aa3d 58ac 15bd
00000130: 225c 7b3d 0014 c53c a666 e73c a88f 0fbd
00000140: b6ff 56bd 438a febb 5b4f d13c 5666 1b3c
00000150: e383 223d 4909 f53c 3fe9 dd3b 58e0 48bd
00000160: b2a0 0c3d 9c8f a03d cf75 40bd 8b6c 203c
00000170: 6390 48bc 2f83 0b3d 68a5 433d 3162 163d
00000180: c4b8 b4bc b2aa 67bd 6105 693d 63f5 2e3d
00000190: 5c37 f63c c673 0abc 582e 6cbd 1258 cb3c
000001a0: d2d2 3d3d a809 1ebd 7d77 4c3d 7a66 503d
000001b0: 1554 b9bb 8e33 89bc 3f96 6e3d 3699 88bd
000001c0: 1c78 b13d c91d cfbc a648 7b3d 9dbe 36bd
000001d0: 77d0 b8bb 3ed1 55bd 98ef 5d3d a0ee afbc
000001e0: f0eb 34bd 0131 07bd dc9e 3f3d 03e8 c03c
000001f0: 83fc b13c c10f 2bbd 66d1 09bd 443a 8d3d
00000200: 78df 2cbd bffc 093d 090d cf3b caed 4b3d
00000210: ff1d 013d 940e 1bbd e4da 1d3d ed37 903d
00000220: 72dc 37bd 0c8d b03c 519e 203d 2f95 c33c
00000230: 34a5 b1b8 bd03 9c3a 1269 843c 2d1c 37bd
00000240: ffe8 703d f814 1bbd e3b1 dabb c294 a6bc
00000250: 0db5 33bc 797d 7fbd 1b10 b33c ae5c b2bc
00000260: c57f e93c cd8b 2c3d cd01 a73c 9506 7a3d
00000270: fb29 803d 618e 28bd 7369 e8bc d42b 313c
00000280: f312 e138 8871 48bd c208 853c 53a1 ed3c
00000290: 797b 563d c775 13bd 7957 36bc 7bd4 1bbd
000002a0: ccf4 043c f40f a5bd 825f a33c c537 aebd
000002b0: 9f16 93bc ea24 83bd 8ea3 ebbc cbec df3c
000002c0: 1892 7abd a6b9 d5bc 126b 1fbd 46f4 58bc
000002d0: 8a0f 2a3d 3019 07bd 45ce a23d 7f84 b43d
000002e0: 5c4e 153d 205d 423d 402d 463d 0be2 683d
000002f0: 4c7c 1e3d 0bdc 003d 6314 f03c 07bb 03bc
00000300: 2c06 68bc df17 91bc 9cc2 323d 6699 d4bb
00000310: 8f4f f13a 999c 403d 01bc 0fbd fa1d 87bc
00000320: 99cd ed3c 5725 ae3d fca8 dd3c 1222 823d
00000330: a6f0 f23c 5d3d 2f3d 1f67 443d 2c63 b53c
00000340: 1386 ab3c 269d 5e3d 31ba cd3c 54fd f3bb
00000350: 290c e73c a501 d03c 3e25 1d3d 0370 3c3d
00000360: e8b7 153d e1bc d0ba 25fb 343d f12f 2e3c
00000370: 8cf9 d83c dd94 493c 9f67 743d 43a6 c73c
00000380: 2f82 373d 3589 403d d2e2 9fba 7210 5b3d
00000390: 7ad7 2cbd 7931 6cbd 532e 8b3c 363d 203b
000003a0: a5c9 d13c 7ace ffbb a29d 713c a771 93bc
000003b0: 244e 833d c61b 80bd a943 91bc cb02 32bd
000003c0: 4304 c5bc d752 903c 893c eebc 5c6f 8a3d
000003d0: 75cf 223d 414d 123d 238a aebc bf8d 1cbc
000003e0: 0196 df3a aa8d 203c b557 80bd 89ae 403d
000003f0: f58f 013d 6691 e43c cbf8 77bd a269 9bbc
0.025599876 0.021804577 -0.037914712 -0.024398034 0.030743957 0.019391604 0.06755138 -0.003474433
-0.023236249 0.060507428 -0.0029310808 0.04652532 -0.04737564 -0.061571795 -0.044765394 -0.057098594
0.026125804 -0.026190395 -0.029012706 0.012823883 -0.03435233 0.05844198 0.023763958 -0.025988761
0.010463866 0.016797708 0.021731876 -0.049464874 0.027511057 -0.006590361 0.018686831 0.03827393
0.07084669 -0.03444082 0.028160926 -0.023842089 0.0062627224 0.0037574142 -0.03135866 -0.0007284561
-0.029893382 -0.044006247 -0.021008242 -0.05121482 -0.030029703 0.017556407 -0.010813432 0.017502435
0.038326904 -0.048750505 0.03404552 -0.02949677 0.042353902 0.0048293206 0.07585894 -0.029821455
-0.029294975 0.025980564 -0.058979694 0.0665727 0.04655889 0.034789026 -0.010911478 0.044899654
0.018828375 -0.005813988 0.024676956 -0.043347612 -0.061147306 0.0018700307 0.0050578294 0.05535408
0.040135562 -0.043046564 0.08316515 -0.036541313 0.06136716 0.024057388 0.028247189 -0.03504911
-0.05248996 -0.007767947 0.025550535 0.009484848 0.03967656 0.029911654 0.00677219 -0.049042076
0.03433294 0.07839891 -0.04698735 0.009791504 -0.012241456 0.034060653 0.047765166 0.036714736
-0.02206076 -0.056559272 0.056889895 0.042714488 0.030055694 -0.008450454 -0.057661384 0.024822269
0.046343632 -0.038583428 0.04991864 0.05087898 -0.0056557753 -0.016748216 0.058248755 -0.06669848
0.08665487 -0.025282757 0.06134858 -0.044615377 -0.0056400853 -0.052201502 0.054183573 -0.02147609
-0.04417032 -0.03300572 0.04678236 0.023548132 0.021726852 -0.04176307 -0.033646964 0.06895879
-0.042205304 0.033688303 0.0063186926 0.04978732 0.031522747 -0.0378557 0.03853883 0.07041917
-0.044887967 0.021551631 0.039213482 0.023874847 -8.470789e-05 0.001190297 0.016163383 -0.044704605
0.058815952 -0.037861794 -0.006674038 -0.020334605 -0.010968459 -0.06237552 0.021858266 -0.021772709
0.028503308 0.042125512 0.0203866 0.061041433 0.06258007 -0.041151408 -0.028370595 0.010813672
0.000107323656 -0.048936397 0.016239528 0.02900759 0.052363846 -0.036000993 -0.011129254 -0.038044434
0.008115005 -0.080596834 0.019943003 -0.08506731 -0.017955123 -0.06403525 -0.028764512 0.027334591
-0.061174482 -0.0260895 -0.03892047 -0.013241833 0.041518725 -0.032983005 0.07949499 0.08814334
0.036451682 0.047452092 0.048382998 0.056856196 0.038692757 0.03145985 0.029306596 -0.008040196
-0.014161628 -0.017711578 0.043642625 -0.006488013 0.0018410551 0.047024343 -0.035091404 -0.016493786
0.0290287 0.08503216 0.027058117 0.06354155 0.029655766 0.04278313 0.047949906 0.022142015
0.020937955 0.054349087 0.025113197 -0.0074459706 0.02820404 0.02539141 0.038365595 0.04600526
0.03655234 -0.0015925431 0.044184823 0.010631547 0.02648618 0.012303558 0.059669133 0.024371272
0.044801887 0.04700585 -0.0012198335 0.05348248 -0.042197682 -0.05766437 0.016989863 0.0024450547
0.025608847 -0.0078065963 0.014747055 -0.01799853 0.064113885 -0.06255297 -0.017732458 -0.043459695
-0.024049884 0.017617626 -0.0290816 0.06759521 0.039748628 0.035718206 -0.021306103 -0.009555279
0.0017058254 0.0097994 -0.06266729 0.04704145 0.03163143 0.027901363 -0.06054 -0.018971268

fc2.bias f4 [132]
00000000: f30e 1cbd c3c4 bbbc dd7f dbbc 6741 233d
00000010: 2624 f3bc e55b 8c3d 1c63 76bb 8f23 4b3d
00000020: d5f0 a5bc 1bfa 193c ca18 88bc 9641 d43c
00000030: 2054 d2bc 2f11 a3bb ae85 74bc dabd 12bd
00000040: d3d1 a9bb 43d4 3cbc 1606 1b3d c80a 033d
00000050: 5525 f13c 4daf 00bc 9299 913c dcef 11bd
00000060: d71c 60bc 2e1b a3bc aefc 993d b930 373d
00000070: b512 033d 521e 7fbc 8414 86bc 945f 803d
00000080: 620c 423d e9d5 0e3d 7b27 b4bc c917 213d
00000090: 5fd4 6f3a 24eb f5bc d890 dabc 4247 23bd
000000a0: 8348 373d a4b2 83bc 4fb4 91bc b7dc a4bc
000000b0: d8bd 123c 6fea a6bc cafc ac3b e0a2 f83c
000000c0: 75a1 823c 338e 913c ccb8 85bd 80c0 683d
000000d0: 78b3 23bd d684 fabc 9063 ca39 29e1 61bd
000000e0: 912d 8d3d e2ef 80bb c2d2 ed3c 4b60 c13c
000000f0: aa47 453d 07b9 a23c 2b57 4cbd 6eea 7f3d
00000100: 5350 e6ba 9eed 94bc 96a3 fc3c c74f 723d
00000110: 5399 dfbc b681 07bd 9324 30bb 83da 313d
00000120: c7a2 a0bc e703 06bc 3f73 88b9 c65a e2bc
00000130: 5355 25bd cc89 1cbd 65cb f1bc b43f 0d3d
00000140: c6c7 45bd 5702 d4bc ee5e 39bd 73f4 7e3b
00000150: 1f1e 4dbd 9b09 efbc 10c9 213d 31cf f43c
00000160: 554f 6c3d 5591 983d 48b5 41bd cf08 2f3a
00000170: 9d9a 47bd 2c65 43bd c5bd 243c 5359 7fbd
00000180: f441 513d 4dd9 5f3d d532 3f3d 662d 703d
00000190: 5f02 b6bc 5b63 5abc 85ab 31bd 4fe8 bfbb
000001a0: a098 7f3d 2ab1 713d fffd 533d e6cd 603d
000001b0: 868b e6bc c2c0 74bd c288 a73c aad5 5b3d
000001c0: e7ed b2bc 6c74 38bd 8f50 773d 69bd 493b
000001d0: d976 babc dbaa 063d 349e c33c ef39 69bd
000001e0: f784 533d 87ed e83c 167b 273d f53e 52bd
000001f0: a945 27bd f086 763d 8631 74b9 494e 21bd
00000200: 90b4 78bc de45 6c3d 4584 21bc 4a26 7d3d
-0.038100194 -0.022920972 -0.026794368 0.039857294 -0.029680323 0.06853465 -0.0037595695 0.04959446
-0.02025644 0.009398009 -0.016613383 0.02591018 -0.02567488 -0.0049764137 -0.01492445 -0.035825588
-0.0051824837 -0.0115252165 0.0378476 0.031992704 0.029436747 -0.007854295 0.017773423 -0.03562914
-0.013678751 -0.019910421 0.07518898 0.0447242 0.032000262 -0.015571194 -0.016367204 0.0626823
0.04737509 0.03487197 -0.021991482 0.039329324 0.0009148772 -0.03001935 -0.026680395 -0.03986288
0.044746887 -0.016076393 -0.017786173 -0.020124776 0.008956395 -0.020375459 0.0052791582 0.030351102
0.01594613 0.017768001 -0.06529388 0.056824207 -0.039966077 -0.03058092 0.00038602622 -0.05514637
0.06893457 -0.0039348463 0.029031161 0.023605486 0.048164047 0.019863619 -0.049887817 0.06247943
-0.0017571546 -0.018179711 0.030839723 0.059158113 -0.02729479 -0.033082686 -0.0026877269 0.04342128
-0.019608868 -0.008179641 -0.00026025806 -0.027631175 -0.040364575 -0.03821735 -0.029515931 0.03448458
-0.048286222 -0.025880022 -0.045256548 0.0038903027 -0.050077554 -0.029179385 0.03949839 0.029883953
0.057692844 0.07449595 -0.047292024 0.0006677033 -0.048731435 -0.047703907 0.01005501 -0.062341046
0.05108829 0.054650594 0.046679337 0.058637045 -0.022217928 -0.013329352 -0.043376464 -0.0058565508
0.062401414 0.059006847 0.0517559 0.05488386 -0.028142702 -0.05975414 0.020450953 0.053670563
-0.021841956 -0.045032904 0.06037956 0.0030783063 -0.02276175 0.032877784 0.023879148 -0.056940015
0.051640477 0.028433574 0.04088887 -0.05132957 -0.040837917 0.06018728 -0.00023288102 -0.0393813
-0.015179768 0.057683818 -0.009858196 0.061804093

fc3.weight f4 [100, 132]
00000000: 54b1 a03c 8a67 c53c 3651 2c3d 2ce0 a6bd
00000010: dedd a4bc 3cda a1bd 889e 51bd 1074 fcbc
00000020: f677 3f3d f468 83bc bc7d 03bd 0669 5c3c
00000030: 46aa 9d3d 0879 033c 3650 8fbd f8c5 523d
00000040: 0948 31bd 5d79 07bd 8c0e 8bbb 54b9 a6bd
00000050: c2ae 66bd 9c0a c3bc f6dd a83d 3e9d 773d
00000060: 1a34 41bc 4668 823d 56d6 7d3d 80aa b53d
00000070: a3a5 eabc c7fb 243c 0e20 353d 5363 3e3c
00000080: 317c 21bd 0d08 8bbc b1cb 1f3d 7ce2 83bc
00000090: d342 013d bf09 56bd 19f1 83bd b376 a6bc
000000a0: 4527 50bd 6bf7 06bd 0157 e3bc 3d95 663d
000000b0: 706b 463c 18b1 913d 159b 9d3d da19 93bd
000000c0: 0f3d 90bd 295b 8abd 5466 853d cd9a 993d
000000d0: 75d0 44bd b014 38bd 6630 8b3c 9b90 7abd
000000e0: 3b74 9ebc dcbb 243d 85ac 9f3d 63a3 1a3c
000000f0: 09d8 9cbd cbb6 093d 4b74 953d e005 7abd
00000100: 9b56 413d b36d c73d 9661 bf3d 70d3 be3d
00000110: f3f1 96bd 46b5 493d fb0f 9abd 928a 55bd
00000120: 8593 83bc c343 f73c 999c 4d3d ef38 4d3d
00000130: 99a6 8f3b 8ff9 13bd 60b4 ec3c a1d4 22bd
00000140: bd58 a8bc d2c8 cd3b 02b5 94bd 87d2 9dbc
00000150: 7160 adbd 5ba3 97bd d216 513b e56f 1ebd
00000160: 359e 793c ac57 a83d 7646 1c3d 84fa 7f3d
00000170: 19ba b93c 5db4 babc 8ee3 c3bc 40e4 94bd
00000180: cbdb a23d 9a3a 6cbd a866 ca3c be22 fcbc
00000190: cdd0 c53d 6a46 96bd b5ae 073d dc1f 3fbc
000001a0: 23b9 97bd 187d 213b 8350 44bd f30d 0a3d
000001b0: fc78 af3d 9556 a7bc 0bfa 27bd d28e 30bc
000001c0: f603 8ebd 49af a73c 5180 48bd 6e01 a53d
000001d0: 43ed 52bd 01ae 373d 1492 6a3d bdf1 813d
000001e0: a5c9 833d 6ea7 62bc 42d8 aa3d 6265 36bd
000001f0: bb95 e33c 23bf a23d 200b 993d 0dec 9dbd
00000200: 925d 6cbd 1a47 cf3d 7489 b7bc 6876 80bd
00000210: 6b34 a0bb 5a2f bb3d 821f 4bbb 1076 c33d
00000220: 5ae1 b33d a982 423d 388b 5cbc 8582 6fbd
00000230: 515b e43b 37aa 8c3d 66e7 b13d bd50 91bd
00000240: d798 b5bb 6a27 c23d a2a3 3b3d beee 8b3d
00000250: d1d0 b53d cb2c 823d a885 d0bc ed22 b7ba
00000260: 55e1 91bd ce67 30bd 555b 873d c17f c03c
00000270: f69c 3f3d 5795 dabc 030d 0f3d 2e6d d03a
00000280: 6aca d43d 896f f4bc 33a8 a3bc 7645 013a
00000290: 763f 92bd 9130 8fbd 36fb ef3c aef7 723d
000002a0: db58 c63d c26f 60bd 67e0 a2bd ec85 4cba
000002b0: 2b8e a03d 50df a3bd af99 083d f2c6 5b3c
000002c0: 31f4 27bd 778f 9c3c 569c a03d 2740 a73d
000002d0: 7a67 8ebd 1feb e5bb 2a0f e6bc 9b05 913d
000002e0: ce58 ae3d 721a 8dbc 7609 303d e189 b93d
000002f0: cadd 06bc 74b3 b73c a5c1 003d 0230 a63d
00000300: a821 903d 35ef 943d 0890 94bd 7be8 493d
00000310: 4b54 b1bc fb73 77bd d040 b0bd 8362 913b
00000320: 52af 3abd f213 a4bd 76ed 2f3d 59b3 ad3c
00000330: 68d4 ab3d bf46 bbbc 7396 c1bd 4c14 e7bc
00000340: 147b fb3c 5d18 b43d c9cb 61bd 80bd 033d
00000350: 86ce 76bc 39e0 263c 3f5c 3e3d 519f dc3b
00000360: d6bd d4bc 39df cfbd 4e0f 953d b734 f93b
00000370: 987b a53d e5cb bcbd 9d82 bf3c 12d1 dd3c
00000380: 4b10 95bd 47e3 7dbc e605 a0bd 2d6a 903d
00000390: 6648 7e3d 2756 903d 881e 313c 718b bdbd
000003a0: f6e5 a23c 25ed 4b3d 2ecd 193d 24d3 b0bc
000003b0: 9ca2 35bc 0cb5 2f3c 8c96 49bd c942 b8bc
000003c0: fd6f 18bd 4bdb 46bd 22ca 613d 60f4 94bd
000003d0: bb79 9b3c 1c81 6b3c 65c6 d33c c953 9339
000003e0: ad77 5bbd c827 45bd 321a a73c b8ee c53d
000003f0: b7da c13d 5240 4abc f1cb 563d 6f48 b2bd
0.019615807 0.024097223 0.042069636 -0.08148226 -0.020125326 -0.07902953 -0.051176578 -0.030817062
0.046745263 -0.016041256 -0.03210233 0.013452774 0.07698493 0.008024462 -0.06997721 0.05145833
-0.04328159 -0.033074725 -0.0042436775 -0.08140817 -0.056319006 -0.02380877 0.08245461 0.060452692
-0.011792207 0.06367545 0.061971985 0.08870411 -0.028643435 0.010069794 0.044220023 0.01162036
-0.03942508 -0.016971612 0.039012615 -0.016099207 0.03155787 -0.05225539 -0.0644247 -0.020320272
-0.0508187 -0.0329508 -0.027751448 0.05629467 0.012110576 0.07113856 0.07695595 -0.07182665
-0.07042896 -0.06755669 0.06513658 0.07500229 -0.048050363 -0.044941604 0.016990852 -0.061173063
-0.019342532 0.04021822 0.07796577 0.0094383685 -0.07658393 0.03362159 0.07297572 -0.06104076
0.047201734 0.0973772 0.09344785 0.09317672 -0.07370367 0.04924514 -0.07522579 -0.052134104
-0.016061554 0.030183678 0.05019817 0.050103124 0.0043838737 -0.03612667 0.028894603 -0.03975356
-0.020550126 0.006280043 -0.07261087 -0.019265426 -0.0846566 -0.074042045 0.003190447 -0.03868093
0.015235473 0.08219847 0.038153134 0.06249477 0.022671746 -0.022791082 -0.023912217 -0.07270098
0.079520784 -0.057673074 0.024707153 -0.030778285 0.09658966 -0.07337649 0.033125598 -0.011665311
-0.07408359 0.0024641212 -0.047928344 0.03370471 0.08567998 -0.020427028 -0.041009944 -0.0107762385
-0.06934349 0.020469325 -0.048950497 0.08056913 -0.0514958 0.044843677 0.057268217 0.06344936
0.06434945 -0.013833864 0.08342029 -0.04453028 0.027781358 0.07946613 0.07472825 -0.07711039
-0.057706423 0.101209834 -0.02240441 -0.06272584 -0.004889061 0.09139891 -0.0030994122 0.09544003
0.08783217 0.04748789 -0.013460927 -0.058474082 0.0069688936 0.068684034 0.08686714 -0.07095478
-0.0055419016 0.09480174 0.04581035 0.06832646 0.08877719 0.063562 -0.025454357 -0.0013972201
-0.07123057 -0.043067746 0.06609217 0.023498418 0.04678055 -0.026682539 0.03492452 0.0015901679
0.1039017 -0.02983834 -0.019977665 0.000493131 -0.071410105 -0.06991685 0.029294591 0.059318237
0.096849166 -0.05479408 -0.079529576 -0.00078019383 0.078396164 -0.08001578 0.03334969 0.0134141315
-0.041004363 0.019111378 0.07842319 0.08166533 -0.0695333 -0.007016554 -0.028083403 0.07081147
0.08513032 -0.017224524 0.042977773 0.090595014 -0.00823159 0.022424437 0.031434674 0.081146255
0.070376694 0.072721876 -0.07254034 0.049293976 -0.02164664 -0.060413342 -0.08606112 0.0044367923
-0.045577355 -0.08011617 0.04295107 0.021203684 0.08390123 -0.022860883 -0.09452524 -0.02820792
0.030698337 0.087937094 -0.055125985 0.032163143 -0.015063887 0.010185295 0.04647469 0.006732859
-0.025969427 -0.10149998 0.0727831 0.007605161 0.08080214 -0.09218577 0.023377711 0.027077232
-0.07278498 -0.015496082 -0.07813625 0.070515014 0.062080763 0.07047682 0.010810502 -0.09255112
0.019885045 0.049786706 0.03754919 -0.021585055 -0.011086132 0.010724317 -0.04921584 -0.022492783
-0.037216175 -0.048548978 0.05512441 -0.07273173 0.018978944 0.014374044 0.025851438 0.0002810045
-0.05358093 -0.04813364 0.020398233 0.096646726 0.09465545 -0.012344437 0.052440587 -0.08705222

fc3.bias f4 [100]
00000000: 116b 433d 1deb 6abd c680 1b3d ec43 9d3c
00000010: 9e4d 693d 95a8 593d a7d1 c5bc aec4 893d
00000020: cf35 c13d 0665 7f3d 9ccd 33bd a8d8 d0bc
00000030: 0cdb 6f3c 46d2 9d3d c83b cb3d 81b6 b4bd
00000040: ee48 b8bc 356e 953d 1823 23bc 0689 aebd
00000050: 9826 3b3d b051 db3d f215 3bbd b556 a83d
00000060: b457 553d d0c8 bf3d dd84 863c 09d5 95bd
00000070: ab21 3cbd 4551 10bd a46b 91bd f0cf 3dbd
00000080: 5d7a b23c c22c 62bd d933 663d e8ad 933c
00000090: 5f5b ab3c 2ebf 76bd 20e6 b23d d34e a1bd
000000a0: 60b3 863d 17b3 633d 7348 a6bd bd5b 043d
000000b0: 2fe3 203d 98b3 a2bd 83bd 2bbc 4efe 56bd
000000c0: 2c73 6dbd d885 af3d 10d9 733d 3f13 aa3d
000000d0: cac6 513d 1f85 a13c 5cb4 e83c 6184 43b9
000000e0: be93 59bc 6eee c43b 3577 8bbd b5c4 113d
000000f0: 3bba 6a3d 7d51 08bd a5fc 763d 50b4 e7bc
00000100: 0d6b 5e3d 3865 153d d7bf 8ebd a6a7 a03d
00000110: 55b2 23bd 29aa fd3c 3256 98bd 0690 383b
00000120: 2cff 28bd d863 80bd 98b2 c03d fa15 48bc
00000130: 3cce 87bd ef45 933d 2d58 7dbd 5955 b0bc
00000140: 8d23 7c3c 8a31 a3bc 8451 393d 3658 963c
00000150: 8ca3 713d e96c 8dbc e259 8dbd fe07 62bd
00000160: 6316 82bd ee20 59bd 355b 8e3d d2fc 8e3d
00000170: abbb 4d3d 9bcd 17bd 2858 aebd d64c 3ebc
00000180: 731e 933d a31f cabc 1d70 8f3d 0461 24bd
0.04770953 -0.057353128 0.037964605 0.019197427 0.056958787 0.053139288 -0.024147822 0.06726967
0.09434091 0.062352203 -0.043897256 -0.025493935 0.014639627 0.07706122 0.09923512 -0.08823872
-0.022495713 0.07296411 -0.0099570975 -0.08522229 0.045691103 0.1070894 -0.045675226 0.08219663
0.052085593 0.09364474 0.016420776 -0.07316024 -0.045930546 -0.035233755 -0.07100609 -0.046340883
0.021786863 -0.055218466 0.05620179 0.01802726 0.020917593 -0.060240917 0.08735299 -0.07876363
0.06577182 0.055590715 -0.08119287 0.03231405 0.03927916 -0.07944411 -0.010482195 -0.052488618
-0.057971165 0.085704505 0.05953318 0.08304452 0.05121497 0.019716797 0.028406315 -0.00018645964
-0.013279853 0.0060098683 -0.06809846 0.035587985 0.05730651 -0.03328084 0.060299534 -0.028284222
0.05430131 0.036473483 -0.06970184 0.078444764 -0.039964993 0.030964928 -0.074383155 0.0028162017
-0.041258976 -0.06269044 0.09409064 -0.012212271 -0.06631133 0.07191073 -0.06185167 -0.021525072
0.015389335 -0.019921083 0.045243755 0.01835261 0.05899386 -0.017263846 -0.069019094 -0.055183403
-0.06351926 -0.05300992 0.0695099 0.069818154 0.050227802 -0.037061315 -0.08512908 -0.011614999
0.07183542 -0.024673289 0.07003806 -0.040131584

fc4.weight f4 [10, 100]
00000000: 0432 e33c e964 f4bd 613c 83bd 2916 8fbd
00000010: 17b7 48bc 94cd b3bd 50d3 e2bd 5ff6 d2bd
00000020: 035b 973d 3f28 cdbd 4f2d cf3d 8aee cabd
00000030: 795c d1bd 937c c9bd c1fc d5bd c55f 453d
00000040: 2b32 043e 3eab 75ba c683 88bc d098 113d
00000050: e912 663c cb7d 90bd bca8 33bc d43b f6bd
00000060: 019c 85bd 2727 72bd e4af b43d 1aa3 423d
00000070: b446 0cbe 3572 afbb aa70 b53d 2f5d 723b
00000080: bba3 07be da44 93bb ae41 ddbd 4f8a 1f3d
00000090: 48d4 ab3d 31e3 58bb 8ae8 28bc 9b7f f3bc
000000a0: 5a3d bcbd e269 05be 3484 023d 8072 f6bd
000000b0: a4e3 583c 34c0 0abe 9a2b d53c 4876 453d
000000c0: 3bbc ea3d aae5 9cbc 561b 82bc f4e4 11be
000000d0: 4539 d63d 9f3f d53d ff9b d8bc 741e 233d
000000e0: d4b3 b3bc 3da2 7e3d 3f1d aabd 9836 93bd
000000f0: d474 9ebd df10 963b 4216 6f3d 5b1d 04bd
00000100: 777b aebd 2433 383c d502 313d ce6a 11be
00000110: 91c5 1a3d 53f7 e9bd d691 68bd ca0d 11bd
00000120: cd56 fcbd cf0b 243c dcb4 11be 5e68 9bbc
00000130: f9eb 043e ab6b ad3d c420 6ebd 8b03 06bb
00000140: 64da 8b3d 0b29 a53c 5c96 893c 5a59 1bbd
00000150: 7bdb a13d 00e4 c83d 451b 023e b5f2 a03d
00000160: 89c1 25bc 085e a9bd f267 8bbd f8b7 493d
00000170: d1da a43c 704b b1bd f2eb db3d 3fb6 0ebd
00000180: 6694 f63d b220 86bd 7327 d73d f7a9 ca3d
00000190: 1e19 f73d ec8f 3ebd 2d0f d23d 58a2 9f3c
000001a0: a458 d33c 8dec 1fbd bf28 053e e79c 54bc
000001b0: 44db 8f3b cdc0 333d ca79 e4bd 8041 5e3d
000001c0: 5f12 853d f557 993a 1735 cc3d c9ed 2cbd
000001d0: 81a9 0dbd 4252 07be ecca f7bd 433e 2fbc
000001e0: 2bca e1bd ccd6 943d 61d0 bfbd 4deb 9d3d
000001f0: 0c05 e63d 0e48 03be a0bc ba3d a7b3 03be
00000200: 3133 0c3d ae3d 10be 4552 7ebc 0a71 f6bc
00000210: 0d86 31bb a63b c53d 2354 213d 0b24 debd
00000220: eb17 7abd a282 9a3d 8583 d83c 9fd4 133c
00000230: f79d c0bc a499 5e3d 010e a1bd e6cd 8c3d
00000240: 2b0f 113e 0b7a 02bd 649f c6bd 1672 02be
00000250: 82d1 fbbd 4054 d03d d295 fa3d 695e b13d
00000260: d462 06be 0da8 26bd f836 91bd 9200 80bd
00000270: f02e c9bd 35fb b33b b8cb bbbd 2628 48bd
00000280: e706 c4bd 1e6f 9d3d 36b9 0cbe 30be d6bd
00000290: 28e5 f23d 17a7 03be e249 f4bd 0d11 d73d
000002a0: 8ed9 dcbd a636 ce3d 880b bfbd f272 9ebd
000002b0: 8842 bf3d 3f97 d53c 3489 903d f924 c13d
000002c0: d47a a5bd cc2c d2bd 550c 82bd 9f9d 973d
000002d0: 1cae 2ebc 92bb 92bd cdec c3bd a978 6bbd
000002e0: e78c cebd 4c91 82bd fad2 b0bd caf7 a9bd
000002f0: 8432 89bd e872 303d 05db bd3d 6acb dd3d
00000300: f7ac f9bd 374a c0bd ee38 d5bd aaa3 773d
00000310: 0ddd 883c a095 e63d 24a4 863c 7c53 013c
00000320: 6314 92bc cbb1 cb3d e2da 8d3d 495d ee3b
00000330: 3052 bc3c a8a8 b53d 3a10 803d a5a2 a63c
00000340: 90d1 8d3d c8ea 013d e165 8bbc be8f 823d
00000350: dbe5 e1bc 57ad 8bbd d036 ed3d 547a 3f3d
00000360: fd8c 06bd 0099 b6bd 18b0 9bbd 6509 d23d
00000370: 7400 c4bd 0fce 9cbc 529a be3c 12c0 9e3d
00000380: 4e81 c33c e0f4 1ebc fa00 79bd 3d02 3c3d
00000390: 8719 423d 769d 1e3d 1b28 223d fbf0 993d
000003a0: f91a a8bd 0865 cc3c 6509 f5bc 8b98 7bbd
000003b0: f695 993d 8985 923d ecce 53bd 6d7d 98bd
000003c0: 9472 f1bd ce74 ca3d f293 4fbd 50b8 90bd
000003d0: 7d69 cebc a2cb 5dbb 0d81 db3d ae34 b1bc
000003e0: 862b 93bd f519 bc3d a7a4 61bd 0769 6f3d
000003f0: 10e0 cc3d 78c2 cd3d 17dc f2bd 7823 bfbd
0.02773381 -0.119333096 -0.06408001 -0.069866486 -0.012250683 -0.08779445 -0.11075461 -0.10300898
0.07390406 -0.10017442 0.10116064 -0.09908779 -0.10222716 -0.09838214 -0.104485996 0.048187036
0.12909763 -0.00093715254 -0.016664397 0.035546124 0.0140425945 -0.07055243 -0.010965522 -0.1202313
-0.06523896 -0.05911937 0.08822611 0.047518827 -0.13698846 -0.0053541907 0.088593796 0.0036981811
-0.13246052 -0.0044942917 -0.10803543 0.03895026 0.08390099 -0.00330944 -0.010309348 -0.029723933
-0.091913894 -0.13028672 0.03186436 -0.12033558 0.0132378675 -0.13549882 0.026021767 0.048208505
0.11461683 -0.019152481 -0.015882175 -0.14247495 0.10460142 0.104125254 -0.026441572 0.039823964
-0.021936335 0.06216644 -0.083063595 -0.07188147 -0.07737127 0.004579648 0.058370836 -0.032254558
-0.08519643 0.011242662 0.04321559 -0.14200899 0.03778607 -0.114241265 -0.056779705 -0.03541354
-0.123212434 0.010012581 -0.14229149 -0.018970665 0.12980641 0.08467802 -0.058136716 -0.002044889
0.06828764 0.020161172 0.01679533 -0.03792701 0.07903191 0.098091125 0.12705715 0.07858793
-0.010116943 -0.08269888 -0.06806935 0.049247712 0.020123871 -0.08656967 0.10738362 -0.034841772
0.120400235 -0.06549205 0.10505571 0.098956995 0.120653376 -0.046523973 0.10256801 0.019486591
0.025799103 -0.03904395 0.13003825 -0.012976862 0.004390152 0.04388504 -0.11156042 0.054261684
0.06497645 0.0011699187 0.099710636 -0.042218957 -0.03458548 -0.13214973 -0.12099251 -0.010695997
-0.110248886 0.07267532 -0.09365917 0.07710896 0.11231431 -0.12820455 0.091180086 -0.128615
0.034228507 -0.14086029 -0.015522544 -0.030083198 -0.0027087957 0.09630518 0.03938688 -0.108467184
-0.061057966 0.075444475 0.0264299 0.009022861 -0.023512824 0.054345742 -0.07863999 0.068752095
0.14165942 -0.03185467 -0.0969837 -0.12738833 -0.1229582 0.101723194 0.12235607 0.086605854
-0.13123637 -0.04068761 -0.070905626 -0.06250109 -0.09823406 0.0054925927 -0.09169716 -0.048866414
-0.09571629 0.076872095 -0.13742527 -0.10485494 0.11860114 -0.12856708 -0.119281545 0.10501299
-0.10783683 0.10069017 -0.09328371 -0.07736768 0.09338862 0.026073096 0.070574194 0.0943088
-0.08080068 -0.102624506 -0.063500084 0.07403111 -0.010661628 -0.071646824 -0.095666505 -0.057488117
-0.10085469 -0.063753694 -0.086339906 -0.08299215 -0.06699088 0.043078333 0.0927029 0.10829814
-0.121911936 -0.09389155 -0.10411249 0.060458817 0.016706968 0.112590075 0.01643569 0.007893439
-0.017831987 0.09946021 0.06926514 0.007274304 0.022988409 0.08870059 0.06253095 0.020341227
0.069247365 0.031718045 -0.017016353 0.06375073 -0.027575424 -0.06820171 0.1158272 0.04674752
-0.0328493 -0.08915901 -0.076019466 0.10255698 -0.09570399 -0.019141225 0.023266945 0.07751478
0.023865368 -0.009701937 -0.060791947 0.045900572 0.047387626 0.038724385 0.03958903 0.075166665
-0.082082696 0.02495052 -0.029911706 -0.061424773 0.07499306 0.07154376 -0.051711008 -0.07445798
-0.11789432 0.0988556 -0.0506782 -0.07066405 -0.025196785 -0.0033843298 0.10717974 -0.021631565
-0.07186036 0.091846384 -0.055088665 0.05844977 0.10003674 0.100468576 -0.11858385 -0.09332937

fc4.bias f4 [10]
00000000: 1e6c 213d 66e1 c13d 8dfe babd 99d6 6abd
00000010: e0be 31bd 11ca a13c 6cd6 aabd d315 743d
00000020: b433 0e3d 9e8c 9fbd
0.03940975 0.094668195 -0.09130583 -0.057333563 -0.043394923 0.019749673 -0.08341679 0.059591126
0.034717277 -0.077904925
